Code/output/ae_model_100.pt (torch, 6540 bytes, 2 tensors)

fc.weight f4 [10, 128]
-0.44467625 -0.12086939 -0.0522057 0.6903805 -0.08140344 -0.43491116 0.044527397 -0.04646216
-0.279029 -0.38267353 -0.027763128 0.071204536 0.009595047 -0.14919108 0.62735045 -0.017823797
-0.0056642415 -0.009354724 0.25430006 0.55224586 -0.40139338 0.27912173 0.35269547 -0.073219016
0.39376095 -0.4042557 0.21446642 -0.025623959 0.54363525 0.61768305 -0.25265038 0.046258148
0.15920195 0.05496144 0.07158615 -0.59170514 -0.33772123 -0.12255982 -0.41964313 -0.039265953
0.38912222 0.05090878 0.021702139 0.016503936 0.04488917 0.03264956 -0.5019966 0.10052804
0.18645886 0.020798223 0.10579203 0.01367354 -0.33752957 0.034029823 -0.109377995 0.3051977
0.64344186 -0.24822204 0.25341508 -0.14679618 -0.55839336 0.16767146 -0.46028936 -0.4245697
0.011624291 0.23934573 -0.08282069 -0.29375088 0.024816995 0.6891443 -0.46386486 0.055414326
0.032776825 -0.05948092 0.08310964 -0.092015736 0.017045787 -0.5897168 0.20584588 0.056833137
0.12079768 0.23702277 0.27505967 0.38111857 -0.29885033 -0.12685554 -0.054257922 0.036609903
-0.07924362 -0.8191384 0.031055441 -0.19432282 -0.52198136 -0.084171556 0.31218305 -0.079805724
-0.007024889 -0.8406878 0.0056120106 -0.064119086 0.15964812 -0.26630986 0.076063566 -0.056712173
0.08454667 -0.009840357 -0.014467148 0.016399838 -0.03299603 -0.17207445 -0.14137793 0.5101457
-0.16080365 0.28057045 -0.2159277 0.04683673 -0.54154444 -0.36992174 -0.119543776 -0.067458734
0.42073983 -0.07090305 -0.41361055 -0.039061453 0.0722411 0.34353888 -0.062179033 -0.05124059
0.09323234 -0.04302262 -0.049761403 -0.41765377 0.036414117 0.51956975 -0.0023435333 0.0764427
0.32492176 -0.12152171 0.14905968 -0.4027136 -0.04485806 -0.14808232 -0.1562647 -0.05741195
0.07052172 0.26791757 0.03514666 -0.2689416 0.07407077 -0.44582272 -0.346103 -0.15944616
-0.2700577 0.14167596 -0.18166178 -0.2716435 -0.45640284 -0.39776614 0.49258617 0.045038808
-0.15047985 -0.18911834 -0.111405395 0.38215068 0.20459875 0.046679527 0.051774442 -0.06951344
-0.09975501 -0.07364649 0.07555059 0.07886862 -0.091323555 0.29441053 -0.01255637 -0.36666328
0.0048609 -0.23562871 0.3214785 0.49726462 0.17956616 0.18663868 0.3788765 0.18289256
-0.7575489 0.4504932 -0.35167 0.29358155 -0.178492 0.05036894 0.43112308 -0.1271305
-0.040290985 -0.451771 -0.047262717 0.018288944 0.20737702 0.15338153 0.4252796 -0.09409655
0.114348866 0.06246757 -0.037634563 0.061229166 -0.043485306 0.3816909 -0.13911195 0.23760413
-0.0037818446 -0.1785888 0.048422784 0.18346408 -0.120773345 -0.36677918 -0.013834313 0.031649668
0.093966596 -0.018252937 -0.04876957 0.34343493 0.08410827 0.06543565 -0.70755 0.16891594
-0.06833981 0.122138046 0.06541983 0.19291589 0.16711737 0.11421312 -0.01593077 -0.17590502
-0.08152323 -0.47032362 0.07724266 0.016820071 0.0059196935 0.15586343 -0.20754848 -0.5538106
-0.41958782 -0.5786889 -0.16811742 -0.48104876 0.35994783 0.4086646 -0.05015437 -0.023602657
-0.24053068 -0.08119109 0.42525235 0.12857604 -0.108858325 -0.0028698172 -0.022871144 0.060093027
00000000: 9bac e3be 5f8a f7bd a5d5 55bd c7bc 303f
00000010: d9b6 a6bd adac debe 5c62 363d 1b4f 3ebd
00000020: e4dc 8ebe c9ed c3be 806f e3bc afd3 913d
00000030: 8b34 1d3c 8cc5 18be 0a9a 203f 3603 92bc
00000040: 1a9b b9bb 8e44 19bc 9e33 823e fc5f 0d3f
00000050: 6f83 cdbe 0be9 8e3e 8094 b43e daf3 95bd
00000060: 099b c93e 9afa cebe 169d 5b3e 56e9 d1bc
00000070: ae2b 0b3f 7a20 1e3f 645b 81be 2f79 3d3d
00000080: d605 233e 3f1f 613d c29b 923d fd79 17bf
00000090: cce9 acbe a500 fbbd 77db d6be 56d5 20bd
000000a0: 073b c73e ba85 503d afc8 b13c 4333 873c
000000b0: b5dd 373d 8cbb 053d d982 00bf a5e1 cd3d
000000c0: 12ef 3e3e 0961 aa3c 7ea9 d83d fc06 603c
000000d0: add0 acbe db62 0b3d 9201 e0bd df42 9c3e
000000e0: 9bb8 243f eb2d 7ebe 9fbf 813e bd51 16be
000000f0: def2 0ebf 11b2 2b3e 0cab ebbe 3361 d9be
00000100: cf73 3e3c 0c17 753e e59d a9bd 8466 96be
00000110: 034d cb3c c36b 303f b27f edbe 22fa 623d
00000120: fe40 063d 44a2 73bd 6335 aa3d bf72 bcbd
00000130: 9ba3 8b3c aef7 16bf 43c9 523e ddc9 683d
00000140: c664 f73d 19b6 723e 9fd4 8c3e f921 c33e
00000150: e902 99be 6be6 01be 8e3d 5ebd 44f4 153d
00000160: 7b4a a2bd 0eb3 51bf fb67 fe3c 90fc 46be
00000170: 92a0 05bf 2362 acbd 75d6 9f3e 2f71 a3bd
00000180: 0a31 e6bb 5137 57bf f5e4 b73b de50 83bd
00000190: cc7a 233e c459 88be 37c7 9b3d 064b 68bd
000001a0: ce26 ad3d 7339 21bc 9e07 6dbc f458 863c
000001b0: d826 07bd 4934 30be 60c5 10be e998 023f
000001c0: b6a9 24be eea6 8f3e 271c 5dbe dfd7 3f3d
000001d0: a8a2 0abf 6266 bdbe 5ed3 f4bd ce27 8abd
000001e0: 366b d73e 9e35 91bd c3c4 d3be e7fe 1fbd
000001f0: 24f3 933d 54e4 af3e 71af 7ebd a7e1 51bd
00000200: 99f0 be3d 7d38 30bd 9dd2 4bbd b7d6 d5be
00000210: f826 153d 8602 053f f795 19bb fe8d 9c3d
00000220: 255c a63e 60e0 f8bd 1aa3 183e 7a30 cebe
00000230: 16bd 37bd e4a2 17be db03 20be cb28 6bbd
00000240: b16d 903d 7e2c 893e f2f5 0f3d b7b2 89be
00000250: 6ab2 973d e042 e4be 6a34 b1be db45 23be
00000260: 0145 8abe 8113 113e 8c05 3abe db14 8bbe
00000270: a2ad e9be 01a8 cbbe 4134 fc3e 9d7a 383d
00000280: 6417 1abe 3da8 41be 8328 e4bd 41a9 c33e
00000290: 5682 513e 0833 3f3d 7011 543d 105d 8ebd
000002a0: 5b4c ccbd f9d3 96bd 45ba 9a3d df85 a13d
000002b0: d807 bbbd fabc 963e 3cb9 4dbc 4abb bbbe
000002c0: 2f48 9f3b a748 71be d498 a43e 7899 fe3e
000002d0: 31e0 373e 361e 3f3e 1afc c13e 3048 3b3e
000002e0: baee 41bf 0ba7 e63e 170e b4be 5250 963e
000002f0: 9bc6 36be a94f 4e3d 2abc dc3e 7f2e 02be
00000300: 2908 25bd 874e e7be 8d96 41bd b2d2 953c
00000310: a45a 543e 0c10 1d3e 3fbe d93e b1b5 c0bd
00000320: bd2f ea3d ffdd 7f3d b326 1abd 6fcb 7a3d
00000330: a61d 32bd fd6c c33e 5d73 0ebe 7f4e 733e
00000340: d3d8 77bb fbdf 36be f856 463d 02de 3b3e
00000350: 0458 f7bd 7bca bbbe 50a9 62bc 15a3 013d
00000360: 8f71 c03d 2f87 95bc 9ac2 47bd b4d6 af3e
00000370: f540 ac3d 2003 863d ff21 35bf 4df8 2c3e
00000380: bef5 8bbd 8323 fa3d d5fa 853d be8b 453e
00000390: d120 2b3e 91e8 e93d 3f81 82bc 7220 34be
000003a0: a7f5 a6bd 42ce f0be 6631 9e3d 3fca 893c
000003b0: fdf9 c13b aa9a 1f3e 9787 54be 88c6 0dbf
000003c0: 37d4 d6be f524 14bf f926 2cbe 064c f6be
000003d0: 154b b83e 7d3c d13e ab6e 4dbd 5c5a c1bc
000003e0: ad4d 76be 8447 a6bd adba d93e 70a9 033e
000003f0: 1df1 debd 8b13 3cbb 445c bbbc 1b24 763d

fc.bias f4 [10]
0.06371219 -0.061233584 -0.07433934 -0.05066163 0.089065485 0.9762762 -0.30821088 0.21979363
-0.6698903 -0.3552065
00000000: 897b 823d 11d0 7abd 393f 98bd 9282 4fbd
00000010: f767 b63d 3ded 793f d1cd 9dbe 9511 613e
00000020: ee7d 2bbf a0dd b5be
