Code/output/autoencoder_100.pt (torch, 942000 bytes, 8 tensors)

encoder.1.weight f4 [128, 784]
0	0x3d1113d5	0.035419304
1	0x3d0cad43	0.034344923
2	0x3cdb2123	0.0267492
3	0x3c28e7ee	0.010309203
4	0xbc6911f8	-0.0142254755
5	0x3cce9471	0.025217267
6	0x3d046007	0.03231814
7	0xbcf54911	-0.029942067
8	0xbcffa468	-0.031206325
9	0xbb8bfaae	-0.0042718267
10	0xbb17c85c	-0.0023160195
11	0xbd02449b	-0.03180371
12	0x3c2cbe8f	0.01054348
13	0x3cfae5a2	0.030627076
14	0x3d08ca7f	0.03339624
15	0x3ae69872	0.001759304
16	0x3c724a85	0.014788275
17	0xba4596dc	-0.00075374334
18	0xbcc94525	-0.024569103
19	0xbc757caa	-0.0149833355
20	0x3c556c85	0.013026361
21	0xbc8ec1aa	-0.01742633
22	0x3ca405ae	0.02002224
23	0xbcd9e433	-0.026598072
24	0xbcbf1e97	-0.023330016
25	0xbb10ffdc	-0.002212516
26	0xbd0019aa	-0.031274475
27	0xbc84b5be	-0.016199943
28	0x3c22bf00	0.009933233
29	0xbb9ab4ee	-0.0047212755
30	0xbc8892c7	-0.016671551
31	0xbcd8ccbe	-0.026464816
32	0x3c6a9ee9	0.014320114
33	0xbd191cc5	-0.037380952
34	0xbd67900a	-0.05653385
35	0xbc0fb1a3	-0.008770379
36	0xbbf1fe05	-0.007385018
37	0x3aac273c	0.0013134251
38	0xbd6388ab	-0.05555026
39	0xbd0457d8	-0.032310337
40	0xbc4fc7fe	-0.012681959
41	0x3b47e8b9	0.0030503704
42	0xbd34d9af	-0.04415291
43	0xbb7c6e3f	-0.003851786
44	0xbd4dedcd	-0.050275613
45	0xbda33ff4	-0.079711825
46	0xbc66cc6f	-0.014086827
47	0xbc7d63db	-0.015465702
48	0x3ce055ed	0.027384723
49	0xbc995c00	-0.018720627
50	0x3d1da5be	0.038488142
51	0xbbc4794a	-0.005995904
52	0xbcbf6c5c	-0.0233671
53	0xbce05de3	-0.027388519
54	0xbcc7b5ba	-0.024378646
55	0xbcef8941	-0.029240252
56	0xbbcd7e4a	-0.0062711583
57	0x3c96090c	0.01831486
58	0x3cf80f08	0.030280605
59	0xbc8526dc	-0.016253881
60	0xbc56295d	-0.013071385
61	0x3cee804a	0.029113907
62	0x3d9ef981	0.07762433
63	0xbb72d795	-0.0037054766
64	0x3b10480a	0.0022015595
65	0xbce5eab4	-0.028066017
66	0xbc1bca08	-0.009508617
67	0xbd3220c6	-0.043488286
68	0x3c4d0270	0.012512788
69	0xbc117aab	-0.008879344
70	0xbd360caf	-0.04444569
71	0xbcfe0e46	-0.031012665
72	0xbdc838a9	-0.09776432
73	0xbd878027	-0.0661624
74	0xbd090d46	-0.033459924
75	0xbd30d854	-0.043175057
76	0xbd065c38	-0.03280279
77	0xbd3c1921	-0.045922402
78	0x3bf6714a	0.0075208293
79	0xbcc71963	-0.024304098
80	0xbd3c495b	-0.045968395
81	0x3b1eab8f	0.0024211144
82	0xb9dbd925	-0.0004193272
83	0xbccdf717	-0.025142236
84	0xbc516c17	-0.012782118
85	0xbc5c1305	-0.013432269
86	0x3c657796	0.014005562
87	0xbcc933c9	-0.024560826
88	0xbcc4c2aa	-0.024018604
89	0xbb24be15	-0.0025137712
90	0x3d584cf1	0.052807752
91	0x3ae059dc	0.0017116624
92	0xbba93c95	-0.0051646926
93	0xbd52ccaf	-0.051464733
94	0x3b3346dd	0.002735547
95	0x3b52d712	0.003217165
96	0x3d811e36	0.063045904
97	0xbc541de6	-0.0129465815
98	0xbd7519cd	-0.05983906
99	0xbcd14d55	-0.02554957
100	0xbce8d84b	-0.028423449
101	0xbd50eae9	-0.051005278
102	0xbc2523ea	-0.010079363
103	0xbc3f1b40	-0.011664212
104	0x3c22f0de	0.0099451225
105	0xbd25be2c	-0.040464565
106	0xbcfeef85	-0.031120071
107	0xbcd2fc68	-0.025755122
108	0xbd179fa9	-0.0370175
109	0xbd28d77c	-0.041221127
110	0xbca257cf	-0.019817261
111	0x3a40a16e	0.00073482736
112	0x3cf58fcc	0.029975794
113	0x3d39f245	0.04539706
114	0x3b904ddb	0.0044038123
115	0xbd08371f	-0.033255693
116	0xbd16290e	-0.036660247
117	0x3a7340ed	0.0009279389
118	0x3d78daab	0.060755413
119	0x3ce82fd8	0.028343126
120	0xbcc790e6	-0.024361085
121	0xbc342416	-0.010994932
122	0x3d78e0e8	0.060761362
123	0x3d9c7a2e	0.076404914
124	0x3da52e8a	0.08065517
125	0x3c8b2f8e	0.01699045
126	0x3c7173a4	0.0147370435
127	0xbce02fd2	-0.027366553
128	0x3b88f92d	0.0041800947
129	0x3d118f6b	0.035537165
130	0x3cbedfbf	0.02330005
131	0x3d52e06a	0.05148355
132	0x3cf5fbec	0.030027352
133	0xbd2b03f6	-0.041751824
134	0xbd545860	-0.051842093
135	0xbcfc09cd	-0.030766392
136	0xbd20bc3b	-0.03924201
137	0x3c5c06e6	0.013429379
138	0xbd1c62ec	-0.038180277
139	0xbd17d728	-0.037070423
140	0xbc0d5d60	-0.008628219
141	0x3d09ab8b	0.03361086
142	0xbc637889	-0.013883718
143	0x3d452d96	0.048139177
144	0xbca3e5f8	-0.020007119
145	0xbc7085fb	-0.014680381
146	0x3cfd3b12	0.030911956
147	0x3d488350	0.048953354
148	0x3c9106c0	0.017703414
149	0x3d921aec	0.07134041
150	0x3dd81a4c	0.10551891
151	0x3d60feec	0.054930612
152	0x3ba5813a	0.0050508054
153	0x3c18b520	0.009320527
154	0x3b94b7e8	0.004538525
155	0x3c0942d7	0.008377752
156	0x3d2a5fc9	0.041595254
157	0x3c4827bc	0.012216505
158	0x3d825053	0.06362977
159	0x3cd90bf3	0.026494956
160	0x3c060661	0.008180232
161	0xbc12b040	-0.008953154
162	0x3d4f4dc5	0.050611276
163	0x3d079c0a	0.033107795
164	0xbc2df74a	-0.01061804
165	0x3d190cec	0.03736584
166	0x3c3603b9	0.011109286
167	0x3cb0fb67	0.021604253
168	0x3ca01fec	0.019546472
169	0x3c93f591	0.018061431
170	0xbb86a3bb	-0.0041088737
171	0xbb9511e1	-0.0045492505
172	0x3c9e9943	0.01936019
173	0x3c9ecc9f	0.01938468
174	0x3c2a7ac6	0.010405248
175	0xbc4d720f	-0.012539401
176	0x3c43af15	0.011943598
177	0x3d3749c5	0.044748086
178	0x3d3dfff7	0.046386685
179	0x3cc9b275	0.024621228
180	0x3b2eff44	0.0026702443
181	0xbce437a6	-0.027858566
182	0x3c0edf28	0.008720197
183	0x3d81c924	0.06337193
184	0x3d1ef205	0.038805027
185	0x3c915364	0.017739959
186	0x3d487b1f	0.048945542
187	0x3d353385	0.044238586
188	0x3d1f7c1d	0.038936723
189	0x3cb104d8	0.021608755
190	0x3c3be8a7	0.011469043
191	0x3c34a454	0.011025507
192	0x3ae82bf7	0.0017713298
193	0x3d28c307	0.041201618
194	0x3c25745d	0.010098544
195	0x3d579a88	0.052637607
196	0xbcb36deb	-0.021902999
197	0xbda9600c	-0.082702726
198	0xbce0814d	-0.027405405
199	0x3d04709e	0.032333963
200	0x3d038bc8	0.032115728
201	0x3c0c4332	0.0085609425
202	0xba947e8d	-0.0011329219
203	0x3c86a880	0.016437769
204	0x3c97de44	0.018538602
205	0x3c9be546	0.019030225
206	0x3ce1cb88	0.027562872
207	0x391dba36	0.00015042056
208	0xbd6e0a45	-0.058115263
209	0xbd09ede8	-0.03367415
210	0xbc660504	-0.014039282
211	0x3b36133f	0.0027782468
212	0x3c31a178	0.01084172
213	0xbb991a04	-0.0046722908
214	0x3ca4cf45	0.020118365
215	0xbd2a30fc	-0.04155062
216	0xbcc32870	-0.023822993
217	0x3c96e10c	0.018417858
218	0x3d3ee488	0.046604663
219	0xbd8c679c	-0.068556994
220	0xbd08d52e	-0.03340643
221	0xbc47e60e	-0.012200845
222	0x3ca7f1cf	0.020501046
223	0x3d6f05da	0.05835519
224	0xbd858b07	-0.06520658
225	0xbd077667	-0.0330719
226	0x3d8130b9	0.06308121
227	0x3d19e656	0.03757318
228	0x3d12f80f	0.0358811
229	0xbb1c553f	-0.0023854522
230	0xbcfc7e3c	-0.030821912
231	0xbd1aedb0	-0.037824333
232	0xbcea21d7	-0.02858059
233	0x3d09a8af	0.033608135
234	0xbcf39839	-0.029735671
235	0xbbfe9f72	-0.007770472
236	0xbcc1dc6e	-0.02366468
237	0xbd30486a	-0.04303781
238	0xbcf3da49	-0.029767172
239	0x3b58ecbd	0.0033100091
240	0xbc30e43c	-0.010796603
241	0xbc80b6d0	-0.015712172
242	0xbd0c275e	-0.03421723
243	0xbbc3869a	-0.0059669735
244	0x3c958255	0.018250624
245	0x3d230f15	0.039809305
246	0x3d401a74	0.046900228
247	0xbd8b5e69	-0.06805117
248	0xbd5020f9	-0.050812695
249	0x3c92e6eb	0.017932376
250	0xbce2bb93	-0.027677333
251	0xbd9d4795	-0.07679669
252	0x3c4a0abb	0.01233166
253	0xbd170e0b	-0.036878627
254	0x3d8506f9	0.064954706
255	0xbb91743b	-0.0044389046

encoder.1.bias f4 [128]
0	0x3c997178	0.018730864
1	0xbb85cd00	-0.004083276
2	0x3d98b04b	0.074555
3	0xbc8aeaa7	-0.016957594
4	0x3d17df19	0.037077997
5	0xbda55773	-0.0807332
6	0x3ac042db	0.0014668362
7	0x3d656a55	0.05600961
8	0x3d467543	0.048451673
9	0x3d2a7bc8	0.041621953
10	0x3e2f36ac	0.171107
11	0xbd515b9d	-0.05111276
12	0x3c3aa727	0.011392391
13	0xbd1bff35	-0.03808518
14	0x3d824110	0.06360066
15	0x3d5ecdad	0.054395366
16	0x3d03a93a	0.03214381
17	0xbced3aac	-0.028958641
18	0x3cbaf4f5	0.022821883
19	0xbd04fcb3	-0.032467555
20	0xbcd9a7b4	-0.026569225
21	0x3d864c4e	0.06557523
22	0xbcbf303d	-0.023338431
23	0x3c85f031	0.016349884
24	0x3d14b2e4	0.036303416
25	0x3b932d6a	0.0044914978
26	0x3cbf0ddc	0.023322038
27	0x3c8e6808	0.01738359
28	0x3d7532f7	0.059863057
29	0x3e0107d5	0.12600644
30	0x3e459df1	0.19298531
31	0x3d5ad62b	0.053426903
32	0x3cc9af00	0.02461958
33	0xbd5afce8	-0.053463846
34	0x3c631cc8	0.013861842
35	0x3e4b9192	0.1987975
36	0xbcfd52ba	-0.030923236
37	0xbd95c488	-0.07312876
38	0x3d4d0d95	0.05006178
39	0xbcfe4ec1	-0.031043412
40	0x3e19a8df	0.15005825
41	0x39d3bdb2	0.0004038639
42	0x3e81c2ce	0.25343937
43	0x3e021ab1	0.12705494
44	0xbcc7eebe	-0.024405833
45	0x3c69c63a	0.014268452
46	0x3c8c9151	0.017159136
47	0xbcb8b6b5	-0.022548059
48	0x3bdb70a4	0.0066967774
49	0xbb8a46b1	-0.004219853
50	0xbc357596	-0.011075398
51	0xbc90b613	-0.017664945
52	0x3b34e392	0.0027601463
53	0xbbf8d96e	-0.007594279
54	0x3d9c0c7e	0.0761957
55	0xbce7a7ad	-0.028278196
56	0x3b8dd611	0.004328497
57	0xbccff6fe	-0.02538633
58	0x3cd41a67	0.025891496
59	0x3d1acf06	0.03779509
60	0x3c68e254	0.014214117
61	0x3b547d0a	0.0032423162
62	0x3d2e4c33	0.042553138
63	0x3db3a71c	0.08772108
64	0xbc3114f1	-0.0108082155
65	0x3d8010d1	0.062532075
66	0x3e5f24f5	0.21791442
67	0xbcecc055	-0.028900305
68	0xbce15f75	-0.027511338
69	0x3dd8fa66	0.10594635
70	0xbc600eba	-0.013675386
71	0x3e443bbf	0.19163416
72	0x3db1c242	0.0867963
73	0x3d1b22e0	0.037875056
74	0x3d11c9e5	0.035592932
75	0x3ccaa488	0.024736658
76	0x3e44190b	0.19150178
77	0x3e614275	0.21998008
78	0x3c73088a	0.014833579
79	0x3b9c405b	0.004768414
80	0x3c386da1	0.011256606
81	0x3db13360	0.08652377
82	0xbc8a4473	-0.016878342
83	0x3cee70de	0.029106554
84	0xbd349363	-0.04408587
85	0x3d203c5a	0.039120056
86	0xbb992b7a	-0.0046743723
87	0x3dbea90c	0.09309587
88	0x3cf7a692	0.030230794
89	0xbca749cb	-0.02042093
90	0x3c243594	0.01002254
91	0x3bdc690a	0.006726389
92	0x3c0b3c6a	0.008498291
93	0x3d0027d9	0.031288
94	0x3ba4544c	0.005014932
95	0xbc052f95	-0.00812902
96	0x3d50ae47	0.050947454
97	0x3d111d2c	0.03542821
98	0xbca014bc	-0.019541137
99	0x3c1d3c90	0.009596959
100	0xbda85f79	-0.08221335
101	0xbc2b3338	-0.010449223
102	0x3de9a9c1	0.11409331
103	0xbd18d9fb	-0.037317257
104	0x3a34f629	0.0006903136
105	0x3dcc757f	0.09983348
106	0x3e64bf97	0.2233871
107	0xbd4e71ba	-0.050401427
108	0xbca1d187	-0.01975323
109	0x3d9ecd39	0.07753987
110	0xbd9248cc	-0.07142791
111	0x3d7db0b4	0.061936095
112	0x3d3f8fa2	0.04676784
113	0x3c99be5e	0.018767532
114	0x3b7de6ee	0.003874238
115	0x3bb7c9c8	0.005608771
116	0x3b94a9eb	0.0045368574
117	0x3e044923	0.12918524
118	0x3cc4b757	0.024013205
119	0x3cbc10b3	0.022957182
120	0x3d2375e6	0.03990736
121	0xbd2c8a75	-0.04212423
122	0xbca1b3ad	-0.019738996
123	0xbbc3d9e7	-0.0059769037
124	0x3c32dda9	0.010917106
125	0x3c5c930c	0.013462793
126	0xba950fe6	-0.0011372536
127	0xbc1e5156	-0.009662947

encoder.3.weight f4 [128, 128]
0	0x3d9370a6	0.0719922
1	0x3db933e5	0.09043101
2	0x3d874e15	0.0660669
3	0x3d2c8493	0.04211862
4	0x3e07c7e3	0.13259844
5	0xbcd94bac	-0.026525341
6	0x3e172105	0.1475869
7	0x3c74be3c	0.014937934
8	0x3d65db9c	0.05611764
9	0xbd3ca703	-0.046057712
10	0xbd0f5f09	-0.035002742
11	0x3d8a1a19	0.06743259
12	0x3d8e3ba1	0.06944967
13	0xbc4a1ba3	-0.012335691
14	0xbcbd3c3f	-0.023100017
15	0xbe20dedf	-0.15710019
16	0xbca7b433	-0.020471668
17	0xbd1a12a8	-0.03761545
18	0x3ca89fbc	0.02058398
19	0x3d919797	0.071089916
20	0x3ca54411	0.020174058
21	0x3a896341	0.001048185
22	0xbc64e0d8	-0.013969623
23	0xbd113093	-0.035446715
24	0xbdb3ae42	-0.087734714
25	0xbbbf8fe9	-0.005846013
26	0xbd969e83	-0.073544525
27	0xbd3fe2de	-0.046847217
28	0x3c46bc40	0.012129843
29	0xbd84ed34	-0.064905554
30	0xbdb2968e	-0.08720122
31	0xbcaa7ec2	-0.020812396
32	0x3d999697	0.07499426
33	0x3db8bcbe	0.09020375
34	0x3ca56339	0.020188915
35	0x3d0a609f	0.03378355
36	0xbd1689eb	-0.036752623
37	0x3c173df1	0.009231077
38	0x3dcd0fde	0.10012792
39	0xbd864150	-0.06555426
40	0x3d7dd9c7	0.061975267
41	0x3b7d3b59	0.003864011
42	0xbd8b4ffc	-0.06802365
43	0x3e0bdd73	0.13658695
44	0xbb468cda	-0.0030296356
45	0x3b106b7d	0.0022036724
46	0x3ba81f55	0.005130688
47	0xbba55b06	-0.005046251
48	0xbd92e848	-0.071732104
49	0x3d86d403	0.06583407
50	0xbd902f16	-0.07040231
51	0x3d5f648b	0.054539245
52	0xbdd52ec1	-0.10409308
53	0xbd272df0	-0.040815294
54	0xbbea0fda	-0.007143003
55	0x3cc2c9de	0.023777898
56	0xbd7c0005	-0.061523456
57	0xbc4f822d	-0.012665314
58	0xbd6298bc	-0.05532144
59	0xbd598052	-0.05310089
60	0xbd58e79e	-0.052955262
61	0xbd54750b	-0.051869433
62	0xbcf95e24	-0.030440398
63	0x3d82a89d	0.06379817
64	0x3c976b53	0.018483793
65	0xbd70db13	-0.058802675
66	0xbe1820d8	-0.14856279
67	0x3d7872dd	0.060656417
68	0x3c851edb	0.016250065
69	0x3df1eec9	0.11813123
70	0xbd84e45e	-0.0648887
71	0x3e19fe35	0.15038379
72	0xbe14731b	-0.14497034
73	0xbe0a46f6	-0.13503632
74	0x3de22c5e	0.110436186
75	0x3da185fc	0.078868836
76	0xbccc80d5	-0.024963776
77	0x3cf69319	0.030099439
78	0x3d329071	0.04359478
79	0x3d8f6c6d	0.070031025
80	0xbd70215e	-0.05862557
81	0x3d97eb06	0.07417874
82	0xbbf27837	-0.0073995846
83	0x3dff70f4	0.12472716
84	0x3cdb6b22	0.026784483
85	0x3d37e9ae	0.04490059
86	0xbcf9996a	-0.030468661
87	0x3dc87ab0	0.09789026
88	0xbc10fb0e	-0.008848919
89	0xbd9465f4	-0.072460085
90	0x3b254eec	0.0025224043
91	0xbc905e95	-0.017623225
92	0x3afa271c	0.0019085142
93	0xbd450b6e	-0.048106603
94	0x3c2ef35d	0.0106781395
95	0xbca335ba	-0.01992308
96	0x3ded42c2	0.11584999
97	0x3c5aae53	0.013347226
98	0x3d8459e5	0.064624585
99	0xbcf89763	-0.030345624
100	0x3dd434c6	0.10361628
101	0x3cc22c5a	0.02370279
102	0xbdc0cb42	-0.09413768
103	0x3d9208a1	0.07130552
104	0xbd05840e	-0.03259664
105	0x3d49f0d3	0.049301933
106	0xbc1b77b2	-0.009488987
107	0x3df1cf49	0.11807115
108	0x3dca0ecb	0.09866103
109	0x3aed55b4	0.0018107207
110	0xbdc7081b	-0.09718343
111	0x3debc329	0.11511833
112	0xbc5bc75d	-0.013414231
113	0xbda57f15	-0.080808796
114	0xbce5c384	-0.02804733
115	0xbcaf5fb6	-0.021407943
116	0xbd784354	-0.060611084
117	0x3ddc6af1	0.10762585
118	0xbe2278d2	-0.15866402
119	0x3da9f032	0.08297767
120	0x3dd9873b	0.10621496
121	0xbd519420	-0.051166654
122	0x3db037fa	0.08604427
123	0xbd023042	-0.031784303
124	0x3ca1d170	0.019753188
125	0x3de5bf71	0.11218155
126	0x3bf6c56c	0.0075308587
127	0x3d2ec997	0.04267272
128	0x3de70916	0.1128103
129	0xbd9ea111	-0.07745565
130	0xbd594478	-0.053043813
131	0xbca12fb6	-0.01967607
132	0x3d4024be	0.04691004
133	0x3e13c8c1	0.1443205
134	0x3dddd037	0.108307295
135	0xbc4819e9	-0.012213209
136	0x3dec67ce	0.11543237
137	0xbd0e0123	-0.034669053
138	0x3b5b07b5	0.0033421342
139	0xba9f32d9	-0.0012145891
140	0xbd988536	-0.07447283
141	0xbcd3c052	-0.025848541
142	0x3d05672b	0.03256909
143	0xbc5c6b4a	-0.013453314
144	0x3babafa9	0.005239446
145	0xbb53f0de	-0.0032339613
146	0x3e00ff4b	0.12597387
147	0x3da18808	0.07887274
148	0x3db7313d	0.08944938
149	0x3d22f7a3	0.039786946
150	0x3cdbce1c	0.026831679
151	0xbd81250e	-0.06305896
152	0xbd6dd2dc	-0.05806242
153	0xbd1abd9b	-0.037778478
154	0x3b98959f	0.004656508
155	0x3c016236	0.0078969505
156	0xbd4b863d	-0.049688566
157	0xbd27825b	-0.0408958
158	0xbda76f10	-0.0817548
159	0x3dd4c0ac	0.10388312
160	0x3da354b0	0.07975137
161	0x3db80963	0.089861654
162	0xbd18f9e0	-0.037347674
163	0xbd6a2b47	-0.05717018
164	0x3deecb9c	0.11659929
165	0x3dba3b04	0.090932876
166	0x3dd8e044	0.1058965
167	0xbb9ec7b1	-0.0048455824
168	0x3d873d72	0.06603517
169	0xbd95485c	-0.07289192
170	0xbd832840	-0.064041615
171	0xbcb36339	-0.021897899
172	0xbd0e7d41	-0.03478742
173	0xbd52271f	-0.05130684
174	0xbd230e96	-0.039808832
175	0xbd74fe0a	-0.059812583
176	0x3de36019	0.111023135
177	0xbd76a3d3	-0.06021483
178	0x3cbac409	0.022798555
179	0xbc0e1688	-0.008672364
180	0xbd7df129	-0.061997566
181	0xbd0c9b44	-0.03432776
182	0xbd012d59	-0.031537388
183	0x3d8a1720	0.06742692
184	0xbd013fb7	-0.031554904
185	0x3d9fa245	0.07794622
186	0x3decd7b7	0.11564582
187	0xbd3a5aea	-0.04549686
188	0xbd9ee5fe	-0.07758711
189	0x3d3f6002	0.04672242
190	0x3dbe3225	0.09286908
191	0xbd6f0d9d	-0.058362592
192	0x3d36fb0a	0.044673003
193	0xbd0d2dd3	-0.03446753
194	0x3d49b12f	0.04924124
195	0x3c257ef0	0.010101065
196	0x3d7e6a01	0.062112812
197	0x3d6ff816	0.058586203
198	0x3da33287	0.07968622
199	0xbe04b785	-0.12960632
200	0x3c472b4d	0.01215632
201	0xbb538401	-0.0032274725
202	0xbd51420a	-0.05108837
203	0x3de5ee6a	0.112271145
204	0x3ca21421	0.019784989
205	0x3c056d42	0.008143725
206	0x3d488245	0.04895236
207	0xbd96c813	-0.0736238
208	0xbceca3be	-0.028886672
209	0x3d96b647	0.073589854
210	0x3d8af81c	0.06785604
211	0xbb37baea	-0.0028034993
212	0x3c69c229	0.014267483
213	0xbdb9fdee	-0.09081636
214	0xbce4ef9a	-0.027946282
215	0x3dc101c5	0.09424166
216	0xbd901362	-0.07034947
217	0xbd1fd269	-0.039019022
218	0x3d2150b7	0.039383616
219	0x3d5665d8	0.05234322
220	0x3d82b1e3	0.063815854
221	0x3de33ec4	0.11095956
222	0x3da6acbb	0.081384145
223	0x3d06014b	0.032716077
224	0xbd82c70a	-0.0638562
225	0x3dd90d11	0.10598195
226	0xbd83f573	-0.064433
227	0x3d4b89d8	0.049692005
228	0x3ca5b99a	0.020230103
229	0xbd6955e3	-0.056966674
230	0xbe310261	-0.17286064
231	0x3da4a7f1	0.08039845
232	0xbc8af6a4	-0.01696331
233	0xbd045d5a	-0.03231559
234	0xbd8ca0fd	-0.068666436
235	0xbd702f32	-0.05863876
236	0xbd3a012e	-0.04541128
237	0xbd4befcf	-0.049789246
238	0x3d728542	0.059209116
239	0xbc3bad0c	-0.011454832
240	0x3d1c86d9	0.03821454
241	0xbc48a486	-0.012246257
242	0xbd194b92	-0.037425585
243	0xbd465aa1	-0.048426274
244	0xbd006a55	-0.031351406
245	0xbc194bf8	-0.009356491
246	0x3d96680e	0.073440656
247	0xbd9d772f	-0.07688748
248	0xbd34fc52	-0.044185944
249	0xbd8bdc20	-0.06829095
250	0x3dc1b291	0.09457887
251	0x3db6ecbf	0.089318745
252	0x3d11cc33	0.03559513
253	0xbd17706d	-0.036972452
254	0x3dcbab40	0.09944773
255	0xbd767d7f	-0.060178276

encoder.3.bias f4 [128]
0	0xbd95ad94	-0.07308498
1	0xbd143906	-0.036187194
2	0x3c23b61e	0.009992151
3	0x3cfc491b	0.030796578
4	0xbcbe1185	-0.023201713
5	0x3c17ac2c	0.009257358
6	0xbc5261d7	-0.01284071
7	0xbd9f5e53	-0.07781663
8	0xbad39c11	-0.0016144534
9	0x3d47345e	0.048633926
10	0x3d8eef2c	0.06979212
11	0xbcc79fbd	-0.024368161
12	0x3d6497d0	0.055808842
13	0xbcd7c4bc	-0.026338927
14	0x3d84a88c	0.0647746
15	0x3d20e516	0.039280973
16	0xbdc97634	-0.098369986
17	0xbd180f29	-0.037123833
18	0xbd1eaa5e	-0.038736694
19	0x394f481c	0.00019767921
20	0x3cc13cde	0.023588594
21	0x3d358b5b	0.044322353
22	0x3d9194e2	0.07108475
23	0x3b0f2440	0.0021841675
24	0x3d02ed02	0.03196431
25	0x3b9eb32d	0.0048431368
26	0x3d0022fa	0.031283356
27	0xbdae12b3	-0.0849966
28	0x3df6c98c	0.12050161
29	0x3d3347d6	0.04376968
30	0x3e357413	0.1772006
31	0xbd60d0eb	-0.05488674
32	0x3d99b87e	0.07505892
33	0xbcd67daf	-0.026182977
34	0x3caba3d0	0.020952135
35	0xbd3fec40	-0.046856165
36	0x3dcb0d5a	0.09914656
37	0xbdc7e79e	-0.09760974
38	0x3da0f4c4	0.07859185
39	0xbdc893e5	-0.09793834
40	0xbcf516e7	-0.029918147
41	0x3d0addad	0.033902813
42	0x3d8f2522	0.069895044
43	0xbc8d95a2	-0.017283265
44	0x3d3c6e41	0.046003584
45	0x3d8ef17c	0.06979653
46	0x3e0079e6	0.125465
47	0xbd265aff	-0.040614124
48	0xbdbd65df	-0.09247946
49	0x3d8a1a75	0.067433275
50	0xbd15965b	-0.036520343
51	0x3dca7d24	0.0988715
52	0x3d8a8416	0.06763475
53	0xbd16d860	-0.036827445
54	0x3d0c5176	0.034257375
55	0x3dcf5dfe	0.101253495
56	0xbd96673b	-0.073439084
57	0x3d139382	0.036029346
58	0x3cbe45ce	0.023226645
59	0x3dc8de71	0.09808052
60	0x3da913f5	0.082557596
61	0x3e10b14f	0.14130138
62	0x3be0aff2	0.006856912
63	0x3ba45fa7	0.0050162855
64	0x3c1f4eb0	0.00972335
65	0xbb951d4d	-0.004550612
66	0x3d065992	0.032800265
67	0x3d03c530	0.032170475
68	0x3d6baabe	0.05753588
69	0x3dc6fc09	0.09716041
70	0x3b6f685e	0.0036530714
71	0xbd74f6cf	-0.059805688
72	0x3d0093be	0.031390898
73	0xbd96cfe1	-0.073638685
74	0x3d956931	0.07295454
75	0x3dbea940	0.093096256
76	0x3d6ac0cd	0.057312775
77	0x3d402caa	0.046917595
78	0xbced92e1	-0.029000701
79	0xbda2aee4	-0.07943514
80	0x3d1bf7b3	0.03807802
81	0xbcc17956	-0.023617428
82	0x3dcbf0fe	0.09958075
83	0xbbbe7348	-0.0058120824
84	0x3df5f0d8	0.12008828
85	0xbd0f592d	-0.034997154
86	0xbd0228e4	-0.031777278
87	0xbd06e487	-0.032932784
88	0x3dcf55c7	0.101237826
89	0x3bffc98d	0.007806009
90	0x3d64dd26	0.055874966
91	0x3c8f5028	0.017494276
92	0xbd1dbeb1	-0.038511936
93	0x3b2b8786	0.0026173308
94	0x3d8adfe5	0.06780986
95	0xbd9c7fa5	-0.07641534
96	0x3d765a34	0.06014462
97	0x3e3c5585	0.18391998
98	0x3c815e08	0.015791908
99	0x3d3969c6	0.04526689
100	0xbb149a30	-0.002267491
101	0x3c9e26af	0.019305555
102	0xbd5a56c2	-0.053305395
103	0xbdb198b2	-0.086717024
104	0x3ce61c84	0.02808977
105	0xbd53e20e	-0.051729254
106	0xbd903192	-0.07040705
107	0xbdbee2be	-0.093205914
108	0x3d963661	0.07334591
109	0xbcd94257	-0.026520891
110	0x3e2db03a	0.16961756
111	0xbdbc9c0a	-0.092094496
112	0xbda1a605	-0.07892994
113	0x3d029a4a	0.031885423
114	0x3dd5259a	0.104075626
115	0x3d27715f	0.040879603
116	0x3dea8293	0.11450686
117	0xbd2eb877	-0.042656388
118	0x3c3e7c06	0.011626249
119	0x3e105b13	0.14097242
120	0xbdfa5e87	-0.12225061
121	0x3d8964ae	0.06708656
122	0x3cdaa84d	0.02669158
123	0x3d11e139	0.03561518
124	0xbd91cb3c	-0.07118842
125	0xbd0c40d9	-0.03424153
126	0x3d7083f5	0.058719594
127	0xbc2b5ca4	-0.010459099

decoder.0.weight f4 [128, 128]
0	0x3d8ba56d	0.06818662
1	0x3d2b419e	0.041810624
2	0x3d139008	0.03602603
3	0x3d82ec14	0.063926846
4	0x3d9ee1c9	0.07757909
5	0xbd6a34fc	-0.057179436
6	0x3ba4bce9	0.0050274027
7	0x3d669b1f	0.05630028
8	0xbdb1aec8	-0.08675915
9	0xbb9be4e7	-0.004757512
10	0xbd623cee	-0.05523389
11	0xbcece093	-0.02891568
12	0xbc9f2e18	-0.019431159
13	0x3d9f19c1	0.07768584
14	0x3c81670f	0.015796212
15	0xbc940b20	-0.018071711
16	0xbc00d0b8	-0.007862262
17	0x3d8a1f32	0.06744231
18	0x3e04a3be	0.12953088
19	0x3d990722	0.074720636
20	0x3c893c31	0.016752334
21	0x3aaa3a8d	0.001298742
22	0x3def987f	0.11699008
23	0x3d9c6ae2	0.07637574
24	0xbd6441ec	-0.05572693
25	0x3dffec40	0.12496233
26	0x3dde9d93	0.10869899
27	0x3dc12a3c	0.09431884
28	0x3d325766	0.04354038
29	0xbda11847	-0.07865959
30	0x3c1132b2	0.008862184
31	0xbd8e26ed	-0.06941018
32	0x3d12c477	0.035831895
33	0x3dc6fdf0	0.097164035
34	0x3cf42380	0.029802084
35	0x3d842d06	0.064539
36	0x3e0b2b7d	0.13590808
37	0xbb812269	-0.0039408696
38	0xbdc15ccd	-0.094415285
39	0x3db5586c	0.08854756
40	0x3a272137	0.0006375494
41	0xbd9c3d6f	-0.07628905
42	0x3c310716	0.010804912
43	0xbce48e91	-0.027900012
44	0xbe165cc4	-0.14683825
45	0x3e10bd10	0.14134622
46	0xbd994501	-0.074838646
47	0xbd1dbf93	-0.038512778
48	0x3d823dbf	0.063594334
49	0x3e059577	0.13045298
50	0xbb390a89	-0.002823504
51	0xbcd9010d	-0.026489759
52	0x3da5bef8	0.08093065
53	0xbd9d7519	-0.0768835
54	0x3ca74561	0.020418825
55	0xbaf6f0fc	-0.001884013
56	0xbda920af	-0.08258187
57	0x3d7a8cf3	0.061169576
58	0xbca3c192	-0.019989762
59	0xbd7deed1	-0.06199533
60	0xbddf7a9d	-0.109120585
61	0x3ca0bfb3	0.01962266
62	0x3c7c8bea	0.0154142175
63	0x3cce35b1	0.025172086
64	0xbae3feb7	-0.0017394637
65	0x3dd1eab5	0.10249845
66	0xbd55c9bd	-0.052194346
67	0xbd08d823	-0.03340925
68	0xbda8b8c2	-0.08238365
69	0x3cf7ce8c	0.030249856
70	0x3ccb7ce7	0.024839832
71	0x3e005cb9	0.12535371
72	0x3e02e50d	0.12782688
73	0x3d4079b2	0.046991058
74	0xbd2436ba	-0.040091254
75	0xbd8cb0f6	-0.0686969
76	0x3d4b07bf	0.049567934
77	0xbd1039a7	-0.03521123
78	0xbc7af9ad	-0.015318316
79	0xbce2d57c	-0.027689688
80	0xbb885e1c	-0.0041616093
81	0xbda163d5	-0.078803696
82	0xbd050c89	-0.032482658
83	0x3dbb6186	0.091494605
84	0x3df5d93f	0.12004327
85	0xbd22f453	-0.039783787
86	0xbced4bf6	-0.028966885
87	0x3ddff01f	0.10934471
88	0x3db20647	0.086926036
89	0x3d307510	0.04308039
90	0x3bb623e7	0.005558479
91	0xbdbed8ac	-0.09318671
92	0x3d660693	0.056158613
93	0x3d3ab460	0.045582175
94	0x3d9c41ae	0.07629715
95	0xbc7d1647	-0.015447206
96	0xbd4f61a6	-0.050630234
97	0xbd1db7de	-0.038505428
98	0x3d91af11	0.071134694
99	0x3d8f77d1	0.07005275
100	0xbdbc614a	-0.09198244
101	0xbdecbd7e	-0.1155958
102	0x3bda739d	0.006666614
103	0xbda60f48	-0.081083834
104	0xbd196fbc	-0.037460074
105	0x3c253b8c	0.010084998
106	0x3ca42b1d	0.02004009
107	0xbd0db6a8	-0.034598023
108	0x3cd21c48	0.025648251
109	0xbd72f681	-0.059317116
110	0xbdae7c12	-0.08519758
111	0x3d6d73fa	0.057971932
112	0xbd6fa46f	-0.058506425
113	0xbc268fe4	-0.010166142
114	0x3dd0245c	0.10163185
115	0xbd954962	-0.07289387
116	0xbcd1da87	-0.025616897
117	0x3d540389	0.051761184
118	0xbde549a4	-0.111956865
119	0x3d555083	0.052078735
120	0xbdb75aab	-0.089528404
121	0xbce2bf02	-0.02767897
122	0xbd6b408f	-0.057434615
123	0x3da7717b	0.081759416
124	0x3d4450b4	0.047928527
125	0x3c7805df	0.0151381185
126	0x3c1bc67c	0.009507772
127	0xbd1cdd09	-0.038296733
128	0x3c0f48e9	0.0087454105
129	0x3cab1124	0.020882197
130	0xbd92e5db	-0.07172748
131	0x3ceb6521	0.028734745
132	0xbd86763c	-0.0656552
133	0x3c1d192e	0.009588523
134	0xbd509c07	-0.05093005
135	0x3dad498d	0.08461294
136	0xbcc0bc5f	-0.023527322
137	0x3d9b37b9	0.07578988
138	0x3d8ec594	0.06971279
139	0xbd0e77a1	-0.034782056
140	0x3ddec96e	0.108782634
141	0x3d6bfb15	0.057612497
142	0xbbdec407	-0.0067982706
143	0x3d82fcd7	0.063958816
144	0xbda2543a	-0.07926221
145	0x3ce04157	0.027374906
146	0xbd1c29dc	-0.038125858
147	0x3db9214d	0.09039555
148	0xbca3b1da	-0.019982267
149	0x3de90a54	0.11378923
150	0x3dff242c	0.12458071
151	0x3c63c42c	0.0139017515
152	0x3d60b904	0.054863945
153	0xbd643b5f	-0.055720683
154	0xbdd20d3f	-0.10256433
155	0x3cac68c5	0.021046052
156	0xbd38073f	-0.044928785
157	0xbdaaebca	-0.083457544
158	0xbe0e981f	-0.13925217
159	0x3d67a8ad	0.056557346
160	0xbcbfbe23	-0.023406094
161	0x3df4c956	0.11952464
162	0xbdf49198	-0.11941832
163	0x3db68bb2	0.089133635
164	0xbc948923	-0.018131798
165	0x3d6c665a	0.057714798
166	0x3dcbe46a	0.09955676
167	0x3d8a6750	0.067579865
168	0xbd405483	-0.046955597
169	0x3cb1a344	0.021684296
170	0xbd1b140e	-0.037860923
171	0xbd92d66d	-0.07169805
172	0xbdf0a5bc	-0.11750361
173	0x3d842120	0.064516306
174	0x3c91dbe6	0.017805051
175	0x3e022d08	0.1271249
176	0xbd1c53a8	-0.03816572
177	0xbcea47f6	-0.028598767
178	0x3df3c47b	0.1190271
179	0xbd6a7637	-0.057241645
180	0x3d6cb0f7	0.057785954
181	0x3dc0dd14	0.09417167
182	0x3c5f44b9	0.013627225
183	0xbda1ae6c	-0.078945965
184	0xbd0c0700	-0.034186363
185	0x3c9c7f79	0.019103752
186	0x3d0650b2	0.0327918
187	0xbe161fd9	-0.14660586
188	0x3d7565a1	0.059911374
189	0xbda09de2	-0.07842614
190	0xbb16b9b8	-0.002299888
191	0xbdb3e1fb	-0.08783337
192	0x3d88aed2	0.06673969
193	0xbd4b0c2e	-0.049572162
194	0xbb159cc0	-0.0022829026
195	0xbd1b57f2	-0.037925668
196	0xbdad25f6	-0.08454506
197	0x3dba12ff	0.090856545
198	0xbdc01d25	-0.09380559
199	0xbdaeae67	-0.08529358
200	0x3d73b814	0.059501722
201	0xbd0c25a4	-0.034215584
202	0xbd925c2f	-0.07146489
203	0x3d5b552e	0.05354803
204	0xbc5c9b32	-0.013464736
205	0x3e13fcf5	0.14451964
206	0x3d9668e0	0.07344222
207	0x3dddc1b4	0.108279616
208	0x3d67c60e	0.056585364
209	0x3dc32c61	0.09529949
210	0xbdde4d25	-0.10854558
211	0xbdaa3757	-0.083113365
212	0x3d254db9	0.040357325
213	0x3cba6d69	0.022757249
214	0x3cdb3035	0.026756385
215	0xbd2c18e0	-0.04201591
216	0x3d9c7abc	0.07640597
217	0x3bba0eb8	0.005678024
218	0xbcf4993b	-0.029858222
219	0x3c97c1c3	0.01852501
220	0xbd3cc96b	-0.046090525
221	0x3cec3c66	0.028837394
222	0xbd18b7e1	-0.037284736
223	0x3c4f56de	0.012654988
224	0x3ba14900	0.0049220324
225	0xbda84658	-0.08216542
226	0x3c64095b	0.013918246
227	0xbd3386cc	-0.043829724
228	0x3df38603	0.11890795
229	0x3ca154ef	0.01969382
230	0x3dc5156b	0.09623226
231	0x3daad9a2	0.083422914
232	0xbd85869f	-0.065198176
233	0x3d85efa0	0.065398455
234	0xbcc594e1	-0.024118843
235	0xbdaeecd3	-0.085412644
236	0x3dc746c9	0.09730298
237	0x3d36ccf3	0.04462905
238	0xbb9b7d35	-0.0047451505
239	0x3ddc8dfe	0.1076927
240	0x3cecf9dd	0.028927738
241	0x3add7ee2	0.0016898776
242	0xbdd9bc50	-0.10631621
243	0x3dfd942b	0.123817764
244	0xbd16df52	-0.03683407
245	0x3d69bd5f	0.057065364
246	0x3c6c1bb2	0.0144109
247	0xbce4f9d2	-0.027951155
248	0xbdaad07d	-0.08340547
249	0xbdb7f136	-0.08981554
250	0xbd8954db	-0.06705638
251	0xbcbe8b97	-0.023259921
252	0xbb48dd68	-0.0030649547
253	0xbd8d4b85	-0.0689917
254	0x3d40e2e7	0.04709139
255	0x3d1c3e42	0.03814531

decoder.0.bias f4 [128]
0	0x3d5d8f48	0.05409172
1	0xbce93f95	-0.028472701
2	0xbd164b24	-0.036692753
3	0xbd66e986	-0.05637505
4	0x3c65e664	0.01403198
5	0xbd3eaab6	-0.04654952
6	0x3cc3aa78	0.023884997
7	0x3db79030	0.089630485
8	0xbc7e0454	-0.015503962
9	0xbda914a9	-0.08255894
10	0x3d41bb1f	0.047297593
11	0x3c9bae80	0.019004107
12	0xbd6d3c39	-0.05791876
13	0x3d52064a	0.05127553
14	0xbd2e8af0	-0.04261297
15	0xbd343ef8	-0.044005364
16	0x3dba93ad	0.09110198
17	0xbc220b46	-0.009890383
18	0x3cf508de	0.029911455
19	0xbda7ff17	-0.082029514
20	0xbdc7eeed	-0.09762368
21	0x3bde30c8	0.0067807175
22	0xbd641b41	-0.055690054
23	0xbd918334	-0.07105103
24	0x3d200131	0.039063636
25	0xbda1c3c8	-0.078986704
26	0xbce13187	-0.027489437
27	0xbb9042b2	-0.004402482
28	0x3c234fe7	0.009967781
29	0x3d0d9ff8	0.034576386
30	0xbd7c96e1	-0.061667327
31	0x3db789b4	0.08961812
32	0x3ccdec0b	0.025136968
33	0xbd20c743	-0.03925253
34	0x3c807b1f	0.015683709
35	0x3c65a4b4	0.014016319
36	0x3d927b0f	0.07152378
37	0x3da292e1	0.07938171
38	0x3d908431	0.070564635
39	0x3d3015b7	0.04298946
40	0xbd0c9de2	-0.034330256
41	0x3db05e20	0.08611703
42	0xbdd5d59f	-0.104411356
43	0xbd3d2cb5	-0.046185214
44	0xbd8b8c81	-0.06813908
45	0x3d5b3925	0.053521294
46	0x3d4b19b2	0.04958505
47	0xbc8a30ac	-0.016868912
48	0x3d02425a	0.03180156
49	0xbd7918a4	-0.060814515
50	0xbd93cd29	-0.072168656
51	0xbcd77a5e	-0.026303466
52	0x3ca0cf15	0.019629994
53	0xbd7e9074	-0.06214948
54	0x3d798289	0.060915504
55	0x3da3bc18	0.079948604
56	0x3d5c35f7	0.053762402
57	0x3d2c7908	0.042107612
58	0xbc8fb40c	-0.017541908
59	0x3d055b61	0.03255785
60	0xbd94a828	-0.07258636
61	0x3df9bc7a	0.12194152
62	0x3d832d46	0.064051196
63	0xbc825470	-0.015909404
64	0x3c762485	0.015023355
65	0xbc2d65a1	-0.010583312
66	0xbd8dfe88	-0.069333136
67	0x3cb0385e	0.021511253
68	0x3de98ec8	0.114041865
69	0x3cc19288	0.023629442
70	0x3d11fdcd	0.035642434
71	0xbe04d734	-0.12972718
72	0xbd46c206	-0.04852488
73	0xbd89ad20	-0.06722474
74	0x3da0a569	0.078440495
75	0x3b9b4814	0.004738817
76	0xbda5cd1c	-0.08095762
77	0x3c5e98d6	0.013586244
78	0xbd495bd5	-0.049159843
79	0xbde8c545	-0.11365751
80	0xbcf9ff08	-0.030517116
81	0xbba9407a	-0.005165157
82	0x3da39316	0.07987039
83	0x3ce590eb	0.028023204
84	0xbe12c689	-0.14333548
85	0x3d76d766	0.060264014
86	0x3ce15f32	0.027511213
87	0xbd80759d	-0.06272433
88	0xbd55fb2f	-0.0522415
89	0x3cfb1c83	0.030653244
90	0x3a845713	0.0010096751
91	0x3d8ee8f3	0.06978025
92	0x3d5e12b4	0.054217055
93	0xbd67e4e9	-0.05661479
94	0xbd2820b6	-0.04104682
95	0xbc0d79cc	-0.008634996
96	0x3d9bfed4	0.07616964
97	0xbdacec5f	-0.08443522
98	0x3cefb5a9	0.029261427
99	0x3d22cd45	0.03974654
100	0x3cc3dd6b	0.023909291
101	0xbd563a08	-0.052301437
102	0xbdbdb4f9	-0.092630334
103	0xbdb041dd	-0.086063124
104	0xbd1174b7	-0.0355117
105	0xbae33586	-0.0017334677
106	0xbd95573f	-0.072920315
107	0x3d8f2e9f	0.06991314
108	0xbd968246	-0.073490664
109	0x3da40284	0.08008292
110	0xbd282e33	-0.041059684
111	0x3c8e45f2	0.017367337
112	0x3d229a0f	0.039697703
113	0xbd06465a	-0.032781936
114	0xbd42335d	-0.047412265
115	0x3d5f812e	0.054566555
116	0x3cb47f60	0.022033393
117	0x3cfe53df	0.031045852
118	0x3ceca1ba	0.028885711
119	0x3d987851	0.074448235
120	0xbd7e934f	-0.062152203
121	0xbde0fdef	-0.10985934
122	0xbd2029c3	-0.039102327
123	0x3d97825f	0.07397913
124	0xbd430069	-0.047607813
125	0x3d33b0d7	0.04386982
126	0x3ced56df	0.028972087
127	0xbb05e96c	-0.002043332

decoder.2.weight f4 [784, 128]
0	0xbdaf5f89	-0.08563144
1	0x3c5c6999	0.013452911
2	0xbd032b6f	-0.032023843
3	0x3d79ed05	0.061017055
4	0x3cfa153e	0.030527707
5	0xbd3932ed	-0.045214582
6	0x3cb93549	0.022608416
7	0xbcc17e75	-0.02361987
8	0xbbe4029c	-0.006958319
9	0x3d2f31e9	0.042772207
10	0x3d5d6565	0.054051775
11	0x3cf803c7	0.030275239
12	0x3d7029b1	0.05863351
13	0xbd0495ea	-0.03236953
14	0x3d9ce792	0.07661356
15	0x3cebae21	0.028769555
16	0x3c9df360	0.01928109
17	0x3ce15daa	0.027510483
18	0xbcb0bec5	-0.021575341
19	0xbcac90bd	-0.02106511
20	0xbb1fb426	-0.0024368851
21	0xbce1a720	-0.027545512
22	0xbd4536cd	-0.048147965
23	0x3c3ac191	0.011398689
24	0xbd923787	-0.07139497
25	0x3d1cb82e	0.038261585
26	0xbd371a14	-0.044702604
27	0xbd98d65e	-0.07462762
28	0x3d5ecaf7	0.05439278
29	0x3c4dab5b	0.012553061
30	0x3cae26dc	0.021258764
31	0x3d5b31bc	0.053514227
32	0x3d6f460c	0.05841641
33	0xbd3ea213	-0.046541285
34	0x3d1319f4	0.035913423
35	0x3d2d7296	0.042345606
36	0xbd91d000	-0.07119751
37	0xbde0ac4e	-0.109703645
38	0x3cf9c6a4	0.030490227
39	0x3cce2575	0.025164345
40	0x3d5d730c	0.054064795
41	0x3c5ddf38	0.013541989
42	0xbd360772	-0.044440694
43	0x3d46a41d	0.048496354
44	0xbcdedbfc	-0.027204506
45	0xbd8f9889	-0.07011516
46	0x3d7ee833	0.06223316
47	0xbd4d031d	-0.050051797
48	0xbd94c7e3	-0.07264688
49	0xbccd4e05	-0.025061617
50	0xbd916fbb	-0.07101389
51	0x3d22ae2a	0.039716877
52	0x3d4facba	0.050701834
53	0x3cac203f	0.02101147
54	0xbcb490a3	-0.022041624
55	0x3d10936c	0.035296842
56	0x3d56a4de	0.052403323
57	0xbd923ec6	-0.07140879
58	0xbd397e36	-0.04528638
59	0xbd8b2147	-0.067934565
60	0xbd95a30a	-0.07306488
61	0x3d9ac7b3	0.07557621
62	0xbc6b214c	-0.0143512
63	0xbd96ea9e	-0.073689684
64	0xbcc6f6dc	-0.024287634
65	0xbc535618	-0.012898944
66	0xbd9bb79d	-0.07603381
67	0x3d5c0e2a	0.053724445
68	0xbd95e971	-0.07319916
69	0xbcdd0df0	-0.026984185
70	0x3c9d62d0	0.019212157
71	0xbd0a6fa9	-0.033797894
72	0xbd952e70	-0.07284248
73	0x3d17c861	0.03705633
74	0xbc8f4fc1	-0.017494084
75	0x3d4d32c8	0.050097257
76	0x3d8c515f	0.06851458
77	0xbdd6e14c	-0.10492191
78	0x3d7fcd33	0.062451553
79	0xbd4e6855	-0.050392468
80	0xbd3339e2	-0.043756373
81	0xbc7fd19e	-0.0156139415
82	0xbc024db1	-0.007953093
83	0xbbea4241	-0.0071490114
84	0x3d40563a	0.046957232
85	0x3d432634	0.047643855
86	0xbd559b4e	-0.052150063
87	0xbd13f8ff	-0.036126133
88	0xbd7fd012	-0.06245429
89	0x3cd834a2	0.026392285
90	0xbbdd8be5	-0.0067610615
91	0x3d88f7ce	0.0668789
92	0x3d0fd978	0.035119504
93	0xbd2862aa	-0.04110972
94	0x3da67577	0.081278734
95	0xbda45aec	-0.080251545
96	0xb9dba8bb	-0.0004189665
97	0xbd35eab8	-0.0444133
98	0xbd56fcd2	-0.052487202
99	0xbd86b720	-0.06577897
100	0xbddd41ec	-0.10803589
101	0x3c4f69ca	0.012659499
102	0xbddda610	-0.108226895
103	0xbd76ea98	-0.06028232
104	0x3d77140f	0.060321864
105	0xbcdf913a	-0.02729093
106	0x3c93085e	0.017948326
107	0xbd81b7c3	-0.06333878
108	0x3c32af6e	0.0109060835
109	0xbd939667	-0.07206421
110	0x3b4ca64b	0.0031227048
111	0x3cbbdaea	0.022931535
112	0xbc5a0777	-0.013307444
113	0xbd2fed04	-0.042950645
114	0x3cce62a4	0.02519352
115	0xbdd88292	-0.10571779
116	0xbdb45ec0	-0.08807135
117	0xbddcb310	-0.10776341
118	0xb966a198	-0.00021994708
119	0xbd56e778	-0.05246684
120	0xbd22badd	-0.039728988
121	0x3d294979	0.041329835
122	0xbd431695	-0.047628958
123	0x3d2f59ef	0.042810377
124	0x3d85a2ec	0.065252155
125	0x3d30ddc6	0.04318025
126	0xbd0c4f4e	-0.03425532
127	0x3da36aaa	0.07979329
128	0x3ca09a0f	0.01960471
129	0x3b1e0ab5	0.0024115269
130	0xbda7ce6a	-0.08193667
131	0x3d7a6770	0.061133802
132	0xbcee6bfc	-0.029104225
133	0xbd96d8ad	-0.073655464
134	0xbd300d0f	-0.042981204
135	0x3cde30d7	0.027122898
136	0x3d866f66	0.06564216
137	0x3d150047	0.036377218
138	0xbda1ab29	-0.07893974
139	0x3d701eca	0.058623113
140	0xbc369e05	-0.011146073
141	0x3d00e249	0.031465802
142	0x3d9a5b1f	0.07536911
143	0x3cfe38f0	0.03103301
144	0xbcf82af4	-0.03029392
145	0x3d9ce144	0.076601535
146	0xbc6b56ed	-0.014363986
147	0x3d3a526b	0.045488756
148	0xbcec38af	-0.028835623
149	0xbd8268c3	-0.06367638
150	0x3d4ffec6	0.05078008
151	0x3be611c0	0.007021159
152	0xbdb33400	-0.087501526
153	0xbce843c6	-0.02835263
154	0xbd584dcc	-0.052808568
155	0x3dad77cc	0.08470115
156	0xbd5c3b50	-0.053767502
157	0xbdd3d9fa	-0.1034431
158	0x3d52e99c	0.05149232
159	0x3cc3c0c4	0.023895629
160	0x3d933ca1	0.071892984
161	0xbd9fbcb4	-0.07799664
162	0x3d67cf81	0.056594376
163	0xbbd7418a	-0.006569092
164	0x3d646b4d	0.055766392
165	0xbc9b4763	-0.018954938
166	0xbd77f522	-0.06053651
167	0x3c932f52	0.0179669
168	0x3d285349	0.041095052
169	0xbd97a5cf	-0.07404672
170	0xbc1ea046	-0.009681767
171	0xbcb0aa9b	-0.021565726
172	0xbd760691	-0.060064856
173	0x3cdc393e	0.026882764
174	0xbd68ce5a	-0.056837417
175	0x3d040857	0.032234516
176	0x3db08a63	0.08620145
177	0xbd9aca78	-0.07558149
178	0x3d31ab52	0.043376274
179	0x3cd7c010	0.0263367
180	0xbda6533d	-0.08121345
181	0xbd40acc8	-0.047039777
182	0xbc4ef4f2	-0.012631642
183	0x3d0b43b5	0.034000117
184	0xbda9a62a	-0.082836464
185	0xbd32f80e	-0.043693595
186	0x3d91ec59	0.07125158
187	0xbd94f3c3	-0.07273056
188	0xbc509021	-0.0127296755
189	0xbd9f6da8	-0.07784587
190	0x3d4718ad	0.048607517
191	0xbd80040d	-0.062507726
192	0x3d31166a	0.043234266
193	0xbd15e4aa	-0.036595024
194	0x3d1d1591	0.038350645
195	0x3d3855db	0.045003753
196	0xbd2fa64d	-0.042883206
197	0xbdad49ea	-0.084613636
198	0xbbc84069	-0.006111194
199	0xbda33677	-0.07969373
200	0xbdad67d3	-0.084670685
201	0xbb93f671	-0.004515462
202	0x3c9b38a9	0.018947916
203	0xbd8ede1f	-0.0697596
204	0xbd94ccdd	-0.07265637
205	0xbd8c9f34	-0.06866303
206	0xbb785480	-0.0037892163
207	0xbdc8f6cf	-0.098127
208	0x3cde03b3	0.027101373
209	0x3cbd4b60	0.02310723
210	0x3c4d3696	0.012525221
211	0xbd99077c	-0.07472131
212	0x3d860ec4	0.06545785
213	0xbd2a2838	-0.04154226
214	0xbdbf6914	-0.09346214
215	0xbd0fb2c0	-0.03508258
216	0x3d59105d	0.05299412
217	0x3bd704fe	0.0065618744
218	0x3bd50483	0.006500782
219	0x3d4668a9	0.048439655
220	0xbd6a09c1	-0.05713821
221	0xbd0974a9	-0.03355852
222	0xbd5cf8be	-0.053948157
223	0x3d89c061	0.067261465
224	0xbc14714d	-0.009060216
225	0x3d1ce8f2	0.03830809
226	0x3c99d361	0.018777551
227	0x3cae7289	0.021294849
228	0xbdaa5e3e	-0.083187565
229	0xbc985a39	-0.018597709
230	0xbca46e66	-0.020072173
231	0x3d1a36b9	0.037649844
232	0x3d1dca6a	0.038523115
233	0xbc5ec155	-0.013595899
234	0xbd3760ff	-0.044770237
235	0xbdcfd4f5	-0.1014804
236	0x3caf7cf8	0.021421894
237	0xbd5fb319	-0.05461416
238	0xbc7928eb	-0.0152075095
239	0xbd1dad0b	-0.038495105
240	0x3d7e4349	0.062075887
241	0x3bf1b436	0.007376219
242	0x3d623b0d	0.055232096
243	0xbd1993dc	-0.037494525
244	0x3c2c8660	0.010530084
245	0x3d1c5b70	0.03817314
246	0x3cb07073	0.021537995
247	0xbd9560d3	-0.072938584
248	0xbd78c486	-0.060734294
249	0xbcb4834b	-0.022035262
250	0xbd1fb533	-0.038991164
251	0x3d4d62d9	0.050143097
252	0xbd9dff1b	-0.07714673
253	0x3d12341f	0.035694238
254	0xbdaee1d2	-0.085391656
255	0x3cffbb81	0.031217339

decoder.2.bias f4 [784]
0	0x3d6f8dc5	0.05848481
1	0xbdb54b0c	-0.08852205
2	0xbd2f8f05	-0.042861003
3	0xbd4fbb57	-0.05071577
4	0xbdb45bb2	-0.08806552
5	0x3d9d4910	0.07679951
6	0x3d5a5f5f	0.05331361
7	0xbda97196	-0.08273618
8	0xbd945209	-0.072422095
9	0x3d9bccee	0.076074466
10	0x391770ec	0.00014442549
11	0x3b9e1335	0.004824067
12	0xbd90a454	-0.07062593
13	0x3a9feb8f	0.0012200939
14	0x3cc5621e	0.024094637
15	0xbccec939	-0.025242435
16	0x3d80e93a	0.062944844
17	0xbd7ce611	-0.061742846
18	0x3d854d70	0.06508911
19	0xbd902efd	-0.07040212
20	0xbced372f	-0.028956978
21	0x3d8dbedf	0.069211714
22	0xbb2b8be8	-0.002617592
23	0x3d76408a	0.060120143
24	0xbcaa990c	-0.020824932
25	0xbca4ef88	-0.020133749
26	0xbdb9d1e5	-0.09073237
27	0xbcdce4c0	-0.026964545
28	0x3cc4a041	0.024002196
29	0x3d8d373d	0.068953015
30	0xbd640010	-0.055664122
31	0xbd9f6669	-0.07783205
32	0xbd827b34	-0.063711554
33	0xbcfdb11c	-0.030968241
34	0x3d9176ce	0.07102738
35	0x3d6cfcc1	0.057858232
36	0xbc7892ed	-0.015171749
37	0x3d005b54	0.031337097
38	0xbd6df857	-0.058098163
39	0xbd44d16e	-0.04805129
40	0xbd0b8806	-0.03406527
41	0xbd778119	-0.06042585
42	0xbc47e8f5	-0.012201537
43	0x3d903e58	0.07043141
44	0xbc4c6ed2	-0.0124775935
45	0xbdde4646	-0.10853247
46	0x3d9226fe	0.071363434
47	0x3d5f4651	0.05451042
48	0xbdca1bd3	-0.09868588
49	0xbd739cd8	-0.05947575
50	0x3d6d08b6	0.057869636
51	0xbd8e9084	-0.06961158
52	0x3d7e0789	0.062018905
53	0xbda0daf1	-0.0785426
54	0x3c8b24c3	0.016985303
55	0xbd7f3b7a	-0.06231258
56	0xbdc15f26	-0.09441976
57	0xbcb2a915	-0.02180914
58	0x3d3942d4	0.045229748
59	0xbd55b04d	-0.052170087
60	0x3d8fc392	0.07019724
61	0xbd4dabd1	-0.050212685
62	0xbda47d64	-0.08031729
63	0x3cd4ce72	0.025977347
64	0x3d59bb39	0.053157065
65	0xbcd54c40	-0.026037335
66	0xbd715892	-0.058922358
67	0x3d7b4bc2	0.061351545
68	0xbdaeb084	-0.085297614
69	0xbbac80ef	-0.0052643935
70	0xbd9a8b3e	-0.075460896
71	0x3d81d7dc	0.0634
72	0x3d165c8c	0.036709353
73	0xbd812a11	-0.06306852
74	0x3ce2148c	0.027597688
75	0xbcd74495	-0.02627782
76	0xbd1c375f	-0.038138743
77	0x3d1b2827	0.03788009
78	0xbced07b1	-0.028934332
79	0x3cd5f0a8	0.02611573
80	0x3cd682a7	0.026185347
81	0x3d3936c6	0.04521825
82	0x3d91772a	0.07102807
83	0x3d188ca1	0.03724349
84	0x3d08120b	0.033220332
85	0xbda0580d	-0.07829294
86	0x3d5ddb17	0.05416402
87	0x3c3e2b0e	0.011606945
88	0x3ce86707	0.02836944
89	0x3d15ccb4	0.036572173
90	0xbdb9b79b	-0.09068223
91	0x3b7a2e34	0.0038174512
92	0xbd8d0a3c	-0.06886718
93	0xbd14bf3d	-0.03631519
94	0xbdca5aa1	-0.09880567
95	0x3d0a2d9e	0.03373491
96	0x38c6bafd	9.476205e-05
97	0xbdb4f94e	-0.088366136
98	0xbc589e71	-0.013221369
99	0xbd0d70b6	-0.034531318
100	0xbda972e9	-0.082738705
101	0xbca9c660	-0.020724475
102	0x3cba3fca	0.022735495
103	0xbdf15774	-0.117842585
104	0xbd46cb96	-0.048534
105	0x3bf95011	0.0076084216
106	0xbd7e9b4e	-0.06215983
107	0x3cc0c482	0.023531202
108	0x3c4543ac	0.01204006
109	0xbd7b3e15	-0.061338503
110	0x3b7e5498	0.0038807746
111	0x3d774951	0.060372654
112	0xbda81aee	-0.082082614
113	0x3d38446f	0.04498714
114	0xbd431b6f	-0.047633585
115	0x3b485dc7	0.0030573474
116	0xbd2f5ee9	-0.042815123
117	0xbc723444	-0.014782969
118	0x3d88ca04	0.066791564
119	0xbdca5882	-0.09880163
120	0x3c1e2a6b	0.009653668
121	0xbde55fc7	-0.11199909
122	0xbd3faa34	-0.046793178
123	0x3ae1f765	0.0017239867
124	0x3c66b1cd	0.014080477
125	0xbcb3c9ad	-0.021946752
126	0xbda2d619	-0.07950992
127	0xbd464604	-0.048406616
128	0xbd8faaa4	-0.07014969
129	0xbde15d8e	-0.11004172
130	0xbddf4a0f	-0.109027974
131	0xbc40f2bd	-0.011776623
132	0xbd97a135	-0.07403795
133	0xbd979c9e	-0.07402919
134	0x3d7f8756	0.062384926
135	0x3d5f426f	0.054506715
136	0xbd0ed646	-0.034872316
137	0x3c7b0599	0.015321159
138	0xbd9df333	-0.07712402
139	0x3cd4cc17	0.025976224
140	0x3cf21c30	0.029554456
141	0xbc2a7d1f	-0.010405808
142	0xbd2359a4	-0.03988041
143	0x3d139e10	0.036039412
144	0xbd7091cd	-0.058732796
145	0xbc7b21ea	-0.01532791
146	0x3d6abc5d	0.057308543
147	0xbc1904f0	-0.009339556
148	0xbd99eb0f	-0.07515537
149	0xbd6080f7	-0.05481049
150	0xbcd0252e	-0.025408354
151	0xbd81c348	-0.06336075
152	0x3cacac48	0.021078244
153	0x3ca11bef	0.01966664
154	0x3bbc123a	0.0057394775
155	0xbccae4ba	-0.024767268
156	0x3cf89366	0.030343723
157	0xbcd5c8d0	-0.026096731
158	0xbd2c9ea2	-0.04214347
159	0xbce78fb0	-0.028266758
160	0xbda34858	-0.07972783
161	0xbd7df9c8	-0.062005788
162	0xba904ab5	-0.0011008593
163	0x3d620113	0.055176806
164	0x3c3dd8bb	0.011587317
165	0xbd7c531c	-0.061602697
166	0xbcb5e6be	-0.022204753
167	0xbd869a8b	-0.065724455
168	0xbd8f7889	-0.07005412
169	0xbd107c37	-0.03527471
170	0x3be31b61	0.006930754
171	0x3d816171	0.063174136
172	0xbd7386f8	-0.059454888
173	0xbb11762b	-0.0022195678
174	0xbd627cec	-0.055294916
175	0xbd75998d	-0.05996089
176	0xbd770c92	-0.060314722
177	0xbe2a0f7b	-0.16607468
178	0xbe0b3db5	-0.13597758
179	0xbd1b6521	-0.03793824
180	0xbce06bfd	-0.027395243
181	0x3c1cc6f6	0.00956892
182	0x3d0748a8	0.033028275
183	0x3c840a84	0.016118295
184	0xbc00d4ce	-0.007863237
185	0xbcb528f8	-0.022114262
186	0x3ca0f95c	0.019650154
187	0xbcb19a03	-0.021679884
188	0xbc849ee1	-0.01618904
189	0xbcf4d279	-0.029885517
190	0xbb8a0c90	-0.0042129233
191	0x39d18e1b	0.00039969463
192	0x3cf0d7b8	0.029399738
193	0xba76ae30	-0.0009410111
194	0xbd9c6db8	-0.07638115
195	0xbd110ad4	-0.035410717
196	0x3ccfc68d	0.025363231
197	0xbd4309dc	-0.047616825
198	0xbdb02552	-0.08600868
199	0xbc036a4c	-0.008020949
200	0xbc3caa20	-0.01151517
201	0x3cdd5cb4	0.027021743
202	0xbda18025	-0.0788577
203	0xbd9fb75f	-0.07798647
204	0xbda2e705	-0.0795422
205	0xbdccfea6	-0.10009508
206	0xbdc1d414	-0.09464279
207	0xbcc6e5ab	-0.024279436
208	0xbc79aa8e	-0.015238417
209	0xbdb5ad15	-0.088709034
210	0xbd996e77	-0.074917726
211	0xbdcf7a25	-0.10130719
212	0xbd4c82f0	-0.04992956
213	0xbd3bafeb	-0.045822065
214	0x3ce3e9b1	0.027821394
215	0xbd131b0c	-0.035914466
216	0x3d08fc7c	0.033443913
217	0x3c018292	0.007904666
218	0xbcf2d320	-0.029641688
219	0x3ca76093	0.020431792
220	0xbcac7df6	-0.021056157
221	0x3d4ab594	0.049489573
222	0xbdaf88ad	-0.08570991
223	0x3d5768d4	0.052590206
224	0xbd6e8ddd	-0.05824076
225	0xbd83fb4d	-0.06444416
226	0xbd7bbad9	-0.06145749
227	0x3d2c243a	0.042026736
228	0x3d489f48	0.048980027
229	0xbd99dea8	-0.075131714
230	0x3d389ef9	0.045073483
231	0xbd066e22	-0.032819875
232	0xbcaebe72	-0.021331046
233	0xbc8105a2	-0.015749756
234	0x3d0e328c	0.034716174
235	0xbc5a31a8	-0.013317503
236	0xbd439b8c	-0.047755763
237	0xbdd19e64	-0.10235289
238	0xbd04920c	-0.032365844
239	0xbd035396	-0.032062136
240	0xbccf7ef4	-0.02532909
241	0x3be0342e	0.006842158
242	0xbdcd4fcd	-0.100249864
243	0xbcc09d2d	-0.023512447
244	0x3d50138d	0.050799895
245	0x3c7abc96	0.015303751
246	0xbcbff96b	-0.023434361
247	0xbd6d7e45	-0.057981748
248	0x3d8528d2	0.065019265
249	0xbd623f0b	-0.055235904
250	0xbc086045	-0.008323734
251	0xbdb0df6e	-0.08636366
252	0xbdce6395	-0.100775875
253	0xbdb4056d	-0.087900974
254	0x3c22c219	0.009933972
255	0x3d1a14c6	0.037617467
