Code/output/cnn_model_100.pt (torch, 18140 bytes, 6 tensors)

conv1.weight f4 [6, 1, 5, 5]
000000 6b e1 db 3c 2d fb 34 be 00 80 39 bd ad f0 08 be
       0.026840886 -0.17673941 -0.045288086 -0.1337306
000010 69 69 7f 3e bd d7 89 be 79 3c d4 3d ea ab d5 bd
       0.24942555 -0.26922408 0.10363097 -0.10433181
000020 61 5d 29 3d 40 f3 25 3e 6d 38 33 bd 25 27 c3 bd
       0.04134882 0.16206074 -0.043754984 -0.095289506
000030 46 f6 4f 3e d3 76 b7 3e 05 94 91 3e e1 bb 5a 3e
       0.2030879 0.35832843 0.28433242 0.21360733
000040 26 c8 b4 3e 73 20 f0 3d a2 ca b5 3e 60 9b 75 3d
       0.3530895 0.11724939 0.3550616 0.05996263
000050 3f e4 6a 3e 52 5e 6e 3e c9 32 0b 3e b1 b7 c3 3d
       0.22938631 0.23278168 0.13593592 0.09556521
000060 ee a8 6e 3e 6a e6 67 3d f2 6a 12 be 39 cd 43 be
       0.23306629 0.056616224 -0.14298609 -0.19121255
000070 0b e1 4c 3d 56 07 9c 3e bf 30 6f be 4b 0e 20 be
       0.050019305 0.30474347 -0.23358439 -0.15630452
000080 b9 69 0e be 96 d1 23 3e 8a d2 53 3e 7f 78 f1 bd
       -0.13907517 0.1599792 0.20685783 -0.11790561
000090 03 28 ef 3c a1 fa 2c bd 4d 35 66 3e a0 0f 5b 3e
       0.029193884 -0.042231206 0.2248127 0.21392679
0000a0 3d 82 6f be 72 a2 84 ba 89 ab c6 bc 45 b2 b3 3d
       -0.23389526 -0.0010119213 -0.024251716 0.087742366
0000b0 02 e9 cc 3d 91 a3 2f be 4a 1a 5b 3e a0 33 7a 3e
       0.1000538 -0.1715224 0.21396747 0.24433756
0000c0 f7 59 13 3d a7 12 c9 bc 24 70 22 3e 5d 1a 2c 3e
       0.03597447 -0.024545027 0.15863091 0.16806932
0000d0 85 26 3f be f4 0f 6a 3c 0a 6c 94 bb 67 2c 14 be
       -0.18667038 0.01428603 -0.004529481 -0.14470063
0000e0 f6 69 83 bd c1 72 16 3e d1 51 f8 bb 17 b0 ba bd
       -0.06416695 0.14692213 -0.0075781127 -0.09115618
0000f0 76 c1 43 3e 9a 34 c3 3b 9c b6 1c be 76 fd 06 bd
       0.19116768 0.0059571983 -0.15304035 -0.032956563
000100 c6 1a 33 be 40 30 26 be 62 4a a3 3d d5 22 c9 bc
       -0.17490682 -0.16229343 0.07973172 -0.024552742
000110 01 f1 33 bd bf 2e 40 3e cb 5b df bd d4 05 73 bd
       -0.04393101 0.18767832 -0.1090618 -0.05933173
000120 5f f1 bc 3c e0 d3 f9 3a 1e 9f 1e be 5a 38 3b be
       0.023064313 0.0019060336 -0.15490386 -0.18283215
000130 fb 41 08 3e f2 dc 46 3d 97 73 ec bd 83 7d 38 3d
       0.1330642 0.048550554 -0.115454845 0.045041572
000140 00 41 7c 3a 8c 9f ff 3d 0d 3a ce bd d3 27 ba 3c
       0.0009622723 0.12481603 -0.10069666 0.022724068
000150 d7 05 18 be 07 18 5f 3d 23 1a 87 3e 64 19 a5 3e
       -0.14845978 0.054466274 0.26387128 0.32245934
000160 32 02 7a bc 3c 1d 40 be 72 b4 a8 3e 6f 2f cb 3e
       -0.0152593125 -0.18761152 0.3295017 0.39684626
000170 49 a2 7c 3e e2 c6 8a 3d 19 9e a1 3c 8a e0 2e bd
       0.24671282 0.06776215 0.019728707 -0.042694606
000180 4f 3f 29 3e e3 e0 cd 3e 3e 86 df 3e 47 d0 d2 3e
       0.16528057 0.40210637 0.43657106 0.41174528
000190 39 ce 8c 3e 40 5d 6a 3e 44 b3 39 3e 9c a5 6c 3e
       0.27501085 0.22887135 0.1813479 0.2311005
0001a0 b2 31 57 be ff ad 40 3e 65 24 93 3e d0 30 a2 3e
       -0.21015051 0.18816374 0.28738704 0.31677866
0001b0 73 37 92 3e 32 87 07 bc 28 89 83 3e 34 5c 3c 3f
       0.2855793 -0.008271979 0.2569058 0.7357819
0001c0 66 8b 31 3f 10 c6 2e 3f d5 02 9d 3e 20 e9 ba 3e
       0.6935333 0.6827097 0.30666223 0.36505985
0001d0 d1 2e 20 3f 06 10 30 3f 60 66 f4 3e 57 8d fc 3e
       0.62571436 0.6877445 0.47734356 0.49326584
0001e0 a7 b7 b6 3e e6 d3 14 3e b3 cb d8 3e 47 7f f8 3c
       0.3568699 0.14533958 0.4234291 0.030334128
0001f0 f3 dc 33 3e 2d c5 88 be ad c8 9b bd cf 3f 56 3e
       0.17564754 -0.26712933 -0.07606635 0.20922779
000200 4e ad a8 3c bb 30 c7 3d 8d 86 d2 bd e5 e0 22 3e
       0.02059045 0.097260915 -0.1027957 0.15906103
000210 56 8e bd 3d 01 ea 70 3e f5 c2 4c 3e 14 81 b9 3c
       0.09255664 0.23526765 0.19996245 0.022644557
000220 5d f7 57 bd a3 05 8e 3e 24 cf d1 3e c5 7d 15 bd
       -0.05272614 0.27738675 0.40978348 -0.036496896
000230 51 b8 02 be 02 d5 f1 bc 1a 3e b4 3e 4d da a1 3e
       -0.12765624 -0.029520515 0.3520363 0.31611863
000240 ba dd 78 3e 4d e6 42 3d 21 1c a8 3e 1f 19 ad 3d
       0.24303332 0.047582913 0.3283396 0.08452057
000250 63 5d d0 3e 92 75 59 3e
       0.40696248 0.21236256

conv1.bias f4 [6]
000000 55 d1 2c 3e 92 27 c0 bd e0 ad 17 be dc 8d 1a 3b
       0.16876729 -0.093825474 -0.14812422 0.002358309
000010 b0 d7 8a 39 66 8c 0e 3e
       0.0002648211 0.13920745

conv2.weight f4 [12, 6, 5, 5]
000000 0f 79 6b bd 5e 68 a2 3d 24 33 ad bc 70 c2 3d bd
       -0.057488497 0.07930063 -0.02114255 -0.04632801
000010 49 92 8e bd ef ae ad 3c 3d 0c c2 bd 99 48 02 be
       -0.069614954 0.021201579 -0.094749905 -0.12723006
000020 7d 41 b2 bd 95 fc f5 3b 01 2a 7a 3d de 1f 23 bd
       -0.08703897 0.0075069168 0.061075214 -0.039825313
000030 d8 7b 96 bd f1 47 89 bd 93 04 0a 3d 8b 89 32 3d
       -0.0734784 -0.06703175 0.03369577 0.043588202
000040 2c b7 e0 3b d3 43 cb 3d 49 95 cd 3d f4 f2 c1 3d
       0.0068577733 0.09925046 0.100382395 0.09470168
000050 fc ec e4 bc 11 a4 8d 3d 1b 9d fd bb 22 38 cf 3d
       -0.027945034 0.06916059 -0.0077396757 0.10118128
000060 fd e2 e3 ba 5c f3 cb 3c 66 a4 ba 3c 01 c6 ba 3d
       -0.0017386373 0.024896316 0.02278347 0.091197975
000070 80 f0 ea bc c1 75 b5 3c 9c 97 ba 3d 37 75 17 bd
       -0.028679132 0.022150876 0.091109484 -0.03697702
000080 42 26 9e 3d bc ce 85 bd 59 93 78 3c c1 3d a3 bb
       0.07722141 -0.06533572 0.015171849 -0.004981727
000090 77 a0 0d bd da 4c 3b bd 5a 71 9e 3c 28 98 6a bd
       -0.03457686 -0.04572759 0.01934116 -0.057274014
0000a0 9d 40 60 bd 4e 36 a7 bc 69 2f 96 bd c6 40 86 bd
       -0.05474912 -0.020411637 -0.073332615 -0.06555323
0000b0 03 2d b4 bd c5 c6 1b bd f2 c0 55 bc 15 eb c1 bd
       -0.08797648 -0.03803136 -0.01304649 -0.094686665
0000c0 ef e0 b7 bd 81 9d da 3c 7b f6 8c 3d 0e 42 62 bd
       -0.089784496 0.026686432 0.0688295 -0.055238776
0000d0 60 34 c7 bc ca 45 84 bd 1e 60 f0 bb 04 d1 7e 3d
       -0.024316967 -0.06458624 -0.007335677 0.06221105
0000e0 ca b8 61 bc c0 88 a1 3d e2 db b9 3c 63 5d 93 bd
       -0.013776967 0.07887411 0.022687856 -0.071955465
0000f0 70 a7 3e bc d7 8e 2e bd 39 0d 67 3d c6 75 90 bd
       -0.0116366 -0.04261669 0.056409094 -0.070537135
000100 6c f5 6a 3c cc 08 8c bd 2c 0e ae 3c 4e 3f a1 bd
       0.01434074 -0.06837615 0.021246992 -0.078734025
000110 bb 55 b1 bb 37 e3 32 3b 5a 93 87 bd 66 91 98 3d
       -0.005411831 0.0027296075 -0.06619902 0.074496076
000120 c7 8a 0e 3c c4 98 3e 3d 0f 41 e4 3b 46 43 70 bd
       0.008700079 0.046532407 0.0069657634 -0.058657907
000130 07 1c 1d bd c3 72 86 bd 17 97 38 bc 85 4a a2 bd
       -0.038356807 -0.06564858 -0.011266491 -0.0792437
000140 21 2a 97 3d dd 60 e8 bc e1 7a 08 3a f7 99 89 bd
       0.07381082 -0.0283665 0.00052062987 -0.067188196
000150 8f 3c 50 3c 37 ee 84 3d 25 0f f9 3c b3 d5 0c 3b
       0.012709751 0.064907484 0.03040273 0.002148968
000160 0e 95 af bd d5 a5 f4 3b ae 5c 8a 3d 0b e2 40 3e
       -0.08573352 0.007466058 0.067559585 0.18836229
000170 fd e3 02 3d 10 02 1b 3e 62 9b 7b 3d 6b df b1 3d
       0.031955708 0.15137506 0.06142748 0.08685192
000180 e3 4e b3 3b a9 27 e3 3d 08 b8 c4 3d 2e be 32 3d
       0.0054720505 0.11091549 0.09605414 0.0436384
000190 9c f2 a1 bd bd d2 a9 3a cd a6 f3 3d ee 84 e4 bb
       -0.07907602 0.0012956482 0.11897049 -0.0069738543
0001a0 dd 9c d4 bc 5a e7 b5 bd a3 69 93 bd 81 48 08 be
       -0.025953704 -0.088820174 -0.07197883 -0.13308908
0001b0 3c 40 49 be fd 32 99 bd 86 78 df bc 2c 1b ba bd
       -0.1965341 -0.07480428 -0.02727915 -0.09087214
0001c0 2f 88 49 be e7 51 53 be 9c 2b 39 be 9d d4 01 3e
       -0.19680856 -0.20636712 -0.18083042 0.12678762
0001d0 1e cd 44 3e 98 c9 15 3e 21 93 f2 3c 71 1e c1 3d
       0.19218871 0.14627683 0.029611172 0.09429634
0001e0 10 b5 9b 3d 4b eb 82 3e 4b b7 a0 3e c9 4e 80 3e
       0.07602894 0.2557014 0.3138984 0.25060108
0001f0 80 fe 7c 3e 44 ad 45 3c bf 4b 94 3d d7 e7 3c bb
       0.24706459 0.0120652355 0.0724101 -0.002882471
000200 95 47 c7 3c 21 7f 90 3d e5 93 4c bd f3 9c e2 bc
       0.024326125 0.07055498 -0.04994573 -0.02766273
000210 2c f8 58 bd 0b f5 b0 bc 49 82 b3 ba 28 fb 57 3d
       -0.05297105 -0.02160122 -0.0013695444 0.052729756
000220 20 6c 4c 3d 2a b9 9c bd 82 d3 a9 bc 83 a6 ba bd
       0.049907804 -0.07652505 -0.020730738 -0.09113791
000230 03 d2 ef 3d df fb fb bb 60 5e 0c 3b cd ce d5 3d
       0.117099784 -0.0076899375 0.0021418557 0.10439835
000240 60 66 da 3c dc 67 4b 3d a5 22 16 3e 7d 0e 81 3d
       0.026660144 0.049659595 0.14661653 0.063015915
000250 34 16 d1 bb 8d a5 93 3c 04 26 9f bc 02 e9 95 3d
       -0.0063808206 0.018023277 -0.019427307 0.07319833
000260 e6 ff 62 3c 74 67 f3 bb dc ec e9 bc 1e e7 1b bd
       0.013854956 -0.007428104 -0.028555326 -0.038062207
000270 a8 bb bd bc 71 19 83 bd f6 fc a4 bd 59 20 49 bd
       -0.02316077 -0.06401337 -0.08056061 -0.049103115
000280 c7 23 a7 bd 0e 3d 5c 3d 90 0e 94 bd ff 96 30 3d
       -0.08161121 0.053769164 -0.0722934 0.04311275
000290 da d0 21 3d 3d e4 6b 3d 9e b4 5b 3d f6 59 97 bb
       0.039505817 0.05759071 0.053639047 -0.0046188785
0002a0 cd 3b ef bc 0b 3b e0 3c 9d db a5 bd 9e d3 94 bd
       -0.02920332 0.027371904 -0.080985285 -0.07266925
0002b0 3d 1a c9 3c f3 2d 6a bd 3b 04 40 bd e0 74 b5 bc
       0.024548644 -0.057172727 -0.046879034 -0.022150457
0002c0 70 e5 ae bc 5e b5 11 3c 62 d3 74 3d 63 6d 4e 3c
       -0.021349639 0.008893339 0.059771903 0.012599322
0002d0 54 90 99 bd b3 d6 a6 bc 9a fb 9a bd 32 c1 81 3d
       -0.074982315 -0.020366048 -0.075675204 0.06335677
0002e0 4d 12 f9 3b d9 3a 8e 3d 96 4a c0 bc 30 58 80 3d
       0.0076010586 0.06944818 -0.023473065 0.062668204
0002f0 5d 96 86 bc 75 c9 08 bd 19 93 86 3d 5a a7 3d bd
       -0.01642912 -0.03339525 0.065710254 -0.046302177
000300 04 19 ab ba a1 03 54 3c 50 27 26 3d 40 2d 29 bd
       -0.001305372 0.012940318 0.040564835 -0.04130292
000310 a6 5c 75 bd 28 6d 55 3c ad 54 35 bd 62 87 64 3d
       -0.05990281 0.013026513 -0.044270206 0.055793174
000320 e7 66 36 bc 75 8d 83 bd a2 60 8d 3c 63 8d 9a bd
       -0.011132932 -0.06423465 0.017257992 -0.075464986
000330 1a 24 5f bd e9 60 60 bd df 0e 2f bd 5f 40 5a bb
       -0.05447779 -0.05477992 -0.04273879 -0.0033302528
000340 02 cc 73 3c 73 e6 9d 3b 32 8b 2c 3d 28 b5 87 3d
       0.014880182 0.0048187315 0.042124934 0.0662635
000350 0f bb 83 3d 49 eb a6 bd ed 3e a6 3d 32 4c 9e bd
       0.06432163 -0.08150346 0.08117471 -0.07729377
000360 ea 3c 37 bd fe 70 47 3d c0 b2 61 3d aa bd e7 ba
       -0.044735827 0.048691742 0.05510211 -0.0017680426
000370 d4 58 aa 3a 59 2c 0a bd e0 48 a1 3d ce 48 94 bd
       0.0012996444 -0.0337337 0.07875228 -0.07240449
000380 8b 2b d6 3c 9b e3 31 3a 16 d5 6e bd a6 ea 9e bc
       0.02614381 0.000678593 -0.058308683 -0.019398998
000390 66 d3 75 bd 4c 20 34 bd 10 b6 96 bd bc a3 10 3a
       -0.06001606 -0.043976113 -0.073589444 0.00055175624
0003a0 0c 18 05 3d 1e 87 48 bd 70 14 a3 3d 44 2d 86 3d
       0.032493636 -0.048956983 0.079628825 0.065516025
0003b0 3c ae 99 3d b6 ff 84 bd d0 9c 8e 3d eb 02 4e 3d
       0.07503936 -0.064940855 0.06963503 0.05029575
0003c0 81 34 86 3d 7b 89 b3 3c 46 94 ec 3c 3c 9e 9c bd
       0.06552983 0.021916142 0.028879296 -0.07647368
0003d0 a9 0a fd bc 6b e6 ef 3c c2 1d 8b 3d cc 26 a7 bd
       -0.030888872 0.029284677 0.06792785 -0.08161697
0003e0 a0 f8 9c 3d f6 4a 86 3d 90 4f 2b 3c 15 5a b6 bc
       0.07664609 0.065572664 0.010455981 -0.022259751
0003f0 82 88 83 3d da 0c 45 3d da c4 c1 bc 0f 7a 86 3d
       0.06422521 0.04810796 -0.023653436 0.065662496

conv2.bias f4 [12]
000000 1f 6b 66 3d ee b7 72 bd 28 fc b1 bd d7 8e a2 bc
       0.056254502 -0.05925744 -0.08690673 -0.019843502
000010 01 79 ab bc 16 97 91 3b 01 ed b7 bc 1e 1d 49 bd
       -0.020931723 0.0044430597 -0.02245188 -0.049100034
000020 3b 5f d8 3c a3 4a 75 3d ed dc 10 3e a6 0e 6f bc
       0.026412597 0.059885632 0.14146776 -0.014590895

fc.weight f4 [10, 192]
000000 cc ee e9 bc cb f4 cf bc 91 04 49 3d 91 30 5d 3d
       -0.02855625 -0.025385281 0.04907662 0.054001395
000010 27 ad fc 3a 1f 8e 01 bc 03 f6 41 be 25 e3 0a be
       0.0019277678 -0.007907419 -0.18941502 -0.13563211
000020 76 e3 e7 bc 31 03 d6 3d 03 11 41 bd 8f f0 bc bc
       -0.028306704 0.104498275 -0.047135364 -0.023063926
000030 0f d9 f5 bc 1c 2f 3a 3e ad ff aa 3c 81 b4 aa bc
       -0.030010728 0.18182033 0.020873869 -0.020838024
000040 f7 2e c0 bb 98 5e 49 bd 42 35 77 bd 38 9f 88 3d
       -0.0058649736 -0.049162477 -0.060353525 0.066709936
000050 1d 3d 5f 3d 97 70 17 3d af 9a 1c bc bf cd d9 3c
       0.05450164 0.03697261 -0.009558364 0.026587365
000060 24 f4 6f 3c e9 22 29 bd f7 2d 60 bd c7 b6 8f 3d
       0.01464561 -0.04129306 -0.054731335 0.07017284
000070 ce cc 8f bd 21 f8 12 3d bf 66 11 bd ba 7f cc b9
       -0.07021485 0.035881165 -0.035498377 -0.00039005076
000080 ca 66 63 3d f1 2a 43 bc ef 50 1f 3d 6f 86 3c 3d
       0.05551795 -0.0119120935 0.038895544 0.046026643
000090 33 48 80 bd ae 12 b9 3c a3 79 2e bc fa f1 f7 bc
       -0.06263771 0.022591915 -0.010649118 -0.03026675
0000a0 b7 e8 13 bc 9c 16 53 3d 3a 8c e6 3c 38 1c 21 3d
       -0.0090276515 0.051535234 0.028143037 0.039333552
0000b0 d4 43 10 3d 92 ed f2 3d 15 1c b3 3a 7c b7 9b bd
       0.035220936 0.11861719 0.0013664985 -0.07603356
0000c0 3b c0 58 bd 38 96 af 3d ad 47 0b bd 77 e1 1b 3b
       -0.0529177 0.08573574 -0.034003902 0.002378551
0000d0 fb e6 88 3d f7 bb c0 3d 32 29 b9 bb 97 0f 52 3d
       0.06684681 0.094108514 -0.005650663 0.0512844
0000e0 b1 d6 b6 3a 43 ea 06 bc eb 89 10 bd f8 f9 26 3e
       0.0013949481 -0.008234563 -0.03528778 0.16306293
0000f0 39 c8 d6 bb 60 fb 0a be 37 09 a1 bd 1a d3 a4 3a
       -0.00655463 -0.13572454 -0.07863086 0.001257512
000100 11 c7 51 bd 43 ef 34 bc 25 5d b1 3d e9 5b d5 3c
       -0.051215235 -0.011043373 0.08660344 0.026044803
000110 ed c1 34 be ab 10 62 bd a3 dc 34 bc d3 16 74 bd
       -0.17652102 -0.055191677 -0.011038932 -0.05959208
000120 8b 96 a3 bd bb dd 24 be 64 8e f6 bd 46 f4 b0 3b
       -0.07987698 -0.16100208 -0.120388776 0.0054002134
000130 d3 7f 0d bd 08 84 84 bc 40 6b 4c 3d 21 25 15 3e
       -0.03454573 -0.016176239 0.04990697 0.14564945
000140 40 18 70 3d 06 54 28 3d 6d 99 c6 bd a0 6f 9e bc
       0.058616877 0.041095756 -0.096972324 -0.019340336
000150 03 64 f9 3c 32 8b 96 3d 9e b3 96 3c a9 93 17 3d
       0.030443197 0.07350768 0.018396195 0.037006054
000160 07 e8 1c 3b 88 23 c9 3b c1 0d 20 3d 12 47 76 bc
       0.002394201 0.006138269 0.039075617 -0.015031593
000170 55 ab 49 bd dc 58 71 bd 32 d8 85 bc c3 c9 84 3c
       -0.04923566 -0.058922634 -0.016338442 0.016209489
000180 7f 9d 0b 3c 99 b5 cb 3c 68 e2 a5 3d da af a8 3d
       0.008521437 0.024866866 0.08099824 0.08236666
000190 9c d3 1d bd 71 b8 8e 39 00 c1 a5 bd 9d 13 01 be
       -0.038531885 0.0002722177 -0.080934525 -0.12605138
0001a0 07 49 c2 bd b4 59 24 3d c6 30 9e bc 9f ad 83 bd
       -0.09486585 0.04012461 -0.019310366 -0.064296
0001b0 40 29 f0 ba bf ee 18 3d 23 56 ce 3d 9e 72 b0 bd
       -0.001832284 0.03733706 0.10075023 -0.086156115
0001c0 dc 89 1b bc e9 71 32 3d 09 a4 ae 3c 8e 92 a3 3d
       -0.009493317 0.043565664 0.021318452 0.079869375
0001d0 22 a3 81 bc 1d 0e 6c 3d d0 ea 86 3c bd 98 31 bd
       -0.015824858 0.057630647 0.01646939 -0.043358553
0001e0 03 60 78 bd 92 76 ea 3b 37 1f d0 ba 27 c5 dc 3b
       -0.06063844 0.007155248 -0.0015878443 0.0067373696
0001f0 b0 a2 1f 3d 25 3e c1 3c 16 6e a2 bd d8 9f 21 3d
       0.03897351 0.023589203 -0.079311535 0.03945908
000200 38 2e 2c 3d ae bd 25 bd 4e 2f 1a 3c e6 5e 66 3c
       0.042036265 -0.040464096 0.009410692 0.0140607115
000210 15 9b a2 bc 0d 45 37 3d 59 1d 99 3b 1d ab 75 3b
       -0.01984934 0.044743586 0.004672688 0.0037486025
000220 d5 f4 cb bd 4a 30 b6 3b 9e 87 86 bd a4 b8 f3 b9
       -0.099588074 0.0055599557 -0.06568836 -0.0004648614
000230 ec 93 d5 3c cb 62 c1 bd 19 db 91 3d 5a ec c1 3d
       0.026071511 -0.094426714 0.07121868 0.094689086
000240 37 15 31 3b 4e ad 53 3d a2 41 a6 3d ab f8 02 be
       0.0027020702 0.051678948 0.08117987 -0.12790172
000250 0f 88 32 3d 59 41 6c 3d 4b 67 58 3d 46 86 03 be
       0.043586787 0.057679508 0.052832883 -0.1284419
000260 7f 50 54 3d 2a a1 50 3d fa 55 b5 bd 1d b5 f6 3d
       0.05183458 0.050934948 -0.08854289 0.12046263
000270 4d 55 13 3d 2b 6a ed bc c3 c7 38 3d af c0 13 3e
       0.03597002 -0.028981289 0.045112383 0.14428972
000280 b5 3e 76 bc 8f 43 d9 bc 65 9c 8c 3d 9b 1b 80 3c
       -0.015029599 -0.026521472 0.068657674 0.015638163
000290 ba 69 b0 bd 9c a1 a3 bd 0a 51 48 3c 1d 9f 83 3c
       -0.08613916 -0.07989809 0.0122263525 0.016067082
0002a0 5a 0a c7 bc 32 65 bc bd e5 cb 25 3c 9d ef 27 3d
       -0.024296928 -0.09198989 0.010119413 0.040999997
0002b0 65 69 58 3d 93 58 a7 3c c3 d7 c1 bd c5 d9 2c 3d
       0.052834887 0.020427978 -0.094649814 0.04219987
0002c0 bf 00 21 3c a5 94 7f 3b 40 4b 9b 3c 46 c1 57 3d
       0.009826838 0.003899851 0.01895678 0.052674554
0002d0 eb 9d 48 bd 82 8e 4a bc 39 8d 99 bd 57 e3 1f 3c
       -0.048978727 -0.012363078 -0.07497639 0.009758792
0002e0 f1 4c e4 3c 1b 6a dc 3d 1b 7b 90 bd 57 b2 5e bd
       0.02786872 0.107624255 -0.070547305 -0.054369297
0002f0 65 6e 5b bc 5a 8f d6 3d 0c cd 08 3d 2a 3b 9d bd
       -0.013393019 0.10476561 0.033398673 -0.076773
000300 02 d0 9c bd 5c 7a 5e bd 86 ce 0a bd 09 98 6e 3c
       -0.07656862 -0.05431591 -0.033888362 0.014562615
000310 ce ec 55 3c 2b 5d b8 bd ad a6 ff bc be f4 be bd
       0.013056947 -0.090021454 -0.031207407 -0.093240246
000320 bf b1 ff 3b 25 a5 08 be d1 e8 12 3e f1 25 b1 3d
       0.0078031714 -0.13344248 0.14346625 0.08649815
000330 58 09 06 bd 41 d6 13 be 09 d7 02 3e ac 48 05 ba
       -0.032723755 -0.144372 0.12777342 -0.00050843763
000340 91 0f 49 3d e4 56 c8 ba 09 3a 5b 3d 91 ad 56 3d
       0.04908711 -0.0015284684 0.053522144 0.05241162
000350 56 99 7b 3c 21 1b 41 3d e4 dc 7f 3c 65 16 56 3d
       0.015356382 0.047145013 0.015616629 0.05226745
000360 87 c1 12 3c d1 c5 32 bd 48 eb d8 3a 87 b3 21 3d
       0.008957273 -0.043645684 0.0016549611 0.03947785
000370 ab 87 62 3d 6b 6d 01 bd 30 0b 4b bd 35 a1 30 ba
       0.055305164 -0.03159849 -0.049571216 -0.0006737889
000380 50 f2 cf bd 80 1b 7d 3d c4 00 9c bc 34 23 58 bd
       -0.10153639 0.061793804 -0.019043334 -0.052767947
000390 a6 70 1f bd 70 09 03 bc 9d 35 27 3c 03 24 7b 3d
       -0.03892579 -0.007997856 0.0102056535 0.06131364
0003a0 3d db 18 bd 44 a7 82 3c af be 09 bd d6 b2 d0 3c
       -0.037318457 0.0159489 -0.033629116 0.0254759
0003b0 28 16 b0 3d c3 3f 6c bd bb dd 78 3d fd 46 88 3b
       0.08597976 -0.057677995 0.060758334 0.004158853
0003c0 7a e4 60 bd 7d 78 c0 bd c3 20 fc 3d c3 9c 66 39
       -0.054905392 -0.09397981 0.12310936 0.00021992908
0003d0 b7 4d 0a bd 73 6b 7a 3b cf e5 10 3d 8e 59 ce bc
       -0.03376552 0.0038211017 0.035375413 -0.025189187
0003e0 1e 76 1e 3c 62 6a cb 3c 60 3b cc 3d 22 97 52 be
       0.009671716 0.024831 0.099722624 -0.20565465
0003f0 d8 0f 48 3d fa f9 b1 3d b3 97 00 be 96 77 90 bd
       0.048843235 0.08690257 -0.12557869 -0.07054059

fc.bias f4 [10]
000000 98 ab cf bd 82 a2 58 3d 7a a8 94 3d 2e 0a 93 3c
       -0.10140151 0.052889355 0.07258697 0.01794919
000010 c5 d7 33 3c e9 dc 20 bc 0c 6c 12 3d d1 4a 16 3c
       0.010976736 -0.009818294 0.035747573 0.009173111
000020 fa 76 e4 bb 7c 83 4f bd
       -0.006972191 -0.050662503
