Code/output/fd_model_100.pt (torch, 9420 bytes, 2 tensors)

fc.weight f4 [10, 200]
0.019254733 -0.017292015 -0.01538008 0.015525231 -0.0020085946 0.012592971 0.026809262 -0.0020759944
-0.031721797 -0.014240224 -0.0037705037 -0.02208175 -0.0545337 -0.009230391 0.018593948 -0.0028572152
-0.004232534 -0.013420712 -0.022060793 0.004847052 -0.029636353 0.028711611 0.0056872945 0.020998135
0.010125823 -0.019433722 0.021719275 0.019834356 0.01809877 -0.008465237 -0.035125084 -0.013896874
0.036059536 -0.016499264 -0.011100752 0.027908728 0.025781257 -0.015229369 0.035376016 0.027198344
0.008745744 -0.016188664 0.013956504 -0.029442837 0.00091216987 -0.0054013385 -0.032895934 0.0119494265
0.013658351 -0.012603368 0.033804968 -0.019606268 0.017144289 -0.025306828 -0.019967929 -0.017255474
0.01176437 -0.016338637 -0.017975148 0.017581658 -0.013465509 0.02814894 0.015255511 -0.011106706
0.014520401 0.00024917285 -0.013431317 -0.03379203 0.005338701 0.006730942 -0.02221822 -0.023483045
-0.0035784044 0.004728731 -0.005693998 0.0024807 0.012912293 -0.017810766 0.0077606537 0.010624358
-0.018249512 -0.0021507759 -0.00033382172 -0.009619746 -0.01126485 -0.04364466 0.019526798 0.025688052
-0.00073890993 -0.0045566685 0.010208048 -0.0056911637 -0.0074258815 -0.015970603 0.016049385 0.0052766404
0.010974492 -0.009345815 -2.0618132e-05 -0.0023509418 -0.0014230846 0.030473469 -0.04745364 0.0127141755
0.0036829212 0.006690561 0.007040606 -0.035551723 -0.0020461946 -0.011887326 -0.057682283 -3.7247773e-05
0.0012045263 0.013480373 -0.0023815245 -0.01940425 0.0037125412 0.0029902107 -0.008171802 -0.02793868
-0.031068888 -0.031154642 -0.05416877 -0.0846649 -0.07182576 -0.044818167 -0.04927034 -0.016026767
-0.045491148 -0.059435107 -0.04035588 0.011170234 -0.038232706 -0.05172959 -0.014179323 -0.037449144
-0.055773176 -0.051428523 -0.03132444 -0.0839925 -0.047886748 -0.07983427 -0.037672143 -0.068905815
-0.048796117 -0.054316685 -0.04308911 -0.06873998 -0.0354492 -0.04146907 -0.0634365 -0.050392874
-0.030786 -0.06979011 -0.04828934 -0.06742715 -0.024468165 -0.04581985 -0.015085731 -0.037672278
-0.024769172 -0.027450485 -0.02612252 -0.028170891 -0.04093047 -0.027732816 -0.039144844 -0.020148344
-0.048920877 -0.026606267 -0.039567087 -0.028969849 -0.04080602 -0.0711121 -0.038991783 -0.028928928
-0.050660007 -0.030749315 -0.04753611 -0.045182075 -0.034688506 -0.030760545 -0.07160477 -0.019829517
-0.051442564 -0.058918294 -0.046051186 -0.040763803 -0.047950827 -0.055140402 -0.05813912 -0.05146397
-0.039651513 -0.054695647 -0.033302873 -0.077589445 -0.0503558 -0.026380155 -0.07369772 -0.076592565
0.015850235 -0.0077802767 -0.0039409497 0.045626327 0.025229627 0.04227545 0.052243434 -0.042024683
-0.028515588 -0.061799303 0.021822372 -0.09388278 -0.04260385 -0.03763358 -0.027749665 -0.027483203
-0.019115372 -0.01126868 -0.11403734 0.057852708 0.02414033 0.06150946 0.024238931 0.02385576
0.002865524 0.007086299 0.04950373 0.0044675306 0.03533316 0.009230938 0.004730014 0.006523443
0.04216497 0.015229408 0.047976043 -0.022982493 0.002739938 -0.026460012 -0.014342385 0.0043191668
0.012444578 -0.020372305 0.027063195 -0.015914006 0.0063709533 0.003420646 -0.030220617 0.015582509
0.025673013 -0.01857388 0.026195189 -0.015869841 0.019087879 -0.02217713 -0.023431784 -0.008097666
00000000: 1abc 9d3c fca7 8dbc bbfc 7bbc 8a5d 7e3c
00000010: a0a2 03bb c052 4e3c 199f db3c 680d 08bb
00000020: b7ee 01bd d44f 69bc 8e1a 77bb c9e4 b4bc
00000030: bb5e 5fbd 113b 17bc 5652 983c 1e40 3bbb
00000040: 12b1 8abb 8ce2 5bbc d6b8 b4bc 05d4 9e3b
00000050: f0c7 f2bc 9d34 eb3c 7c5c ba3b 4804 ac3c
00000060: c8e6 253c 7833 9fbc 9fec b13c a97b a23c
00000070: df43 943c c7b1 0abc 52df 0fbd b7af 63bc
00000080: 2ab3 133d 7729 87bc eedf 35bc d8a0 e43c
00000090: 3733 d33c 9a84 79bc 71e6 103d 10cf de3c
000000a0: 4f4a 0f3c 179e 84bc d2a9 643c 1b32 f1bc
000000b0: af1e 6f3a b6fd b0bb e3bd 06bd 87c7 433c
000000c0: 47c7 5f3c 5b7e 4ebc 1477 0a3d 539d a0bc
000000d0: 2e72 8c3c 4450 cfbc c893 a3bc 5a5b 8dbc
000000e0: 58bf 403c 9bd8 85bc 9e40 93bc 6907 903c
000000f0: 709e 5cbc 9b98 e63c 40f2 793c e7f8 35bc
00000100: fae6 6d3c 6aa3 8239 070f 5cbc 8369 0abd
00000110: 45f0 ae3b 3c8f dc3b fc02 b6bc 845f c0bc
00000120: aa83 6abb 78f3 9a3b b894 babb 3d93 223b
00000130: 158e 533c e2e7 91bc 154d fe3b ca11 2e3c
00000140: 0080 95bc 08f4 0cbb cb04 afb9 249c 1dbc
00000150: 3590 38bc bec4 32bd aaf6 9f3c c06f d23c
00000160: 68b3 41ba 1b50 95bb a83f 273c f17c babb
00000170: cf54 f3bb c8d4 82bc 007a 833c abe7 ac3b
00000180: 5bce 333c 301f 19bc 1af5 acb7 4212 1abb
00000190: cc86 baba 7fa3 f93c bf5e 42bd 1e4f 503c
000001a0: 2a5d 713b 7e3c db3b e2b4 e63b af9e 11bd
000001b0: 7319 06bb 0fc3 42bc 4244 6cbd 7e3a 1cb8
000001c0: 32e1 9d3a c8dc 5c3c 5a13 1cbb a9f5 9ebc
000001d0: 1b4e 733b 69f7 433b 06e3 05bc a9df e4bc
000001e0: 2e84 febc 0538 ffbc 12e0 5dbd cb64 adbd
000001f0: 6219 93bd 4193 37bd b2cf 49bd 914a 83bc
00000200: ed54 3abd 3a72 73bd 354c 25bd 5b03 373c
00000210: e699 1cbd 68e2 53bd 6450 68bc 4664 19bd
00000220: 6a72 64bd b7a6 52bd 0e4e 00bd 4304 acbd
00000230: e524 44bd 2680 a3bd 1b4e 1abd 7e1e 8dbd
00000240: 70de 47bd 2c7b 5ebd 357e 30bd 8cc7 8cbd
00000250: 2e33 11bd 79db 29bd ffea 81bd c268 4ebd
00000260: ec32 fcbc 1eee 8ebd 0bcb 45bd 3f17 8abd
00000270: 7671 c8bc 98ad 3bbd 242a 77bc 3f4e 1abd
00000280: b8e8 cabc d7df e0bc e5fe d5bc a4c6 e6bc
00000290: b5a6 27bd ee2f e3bc 5856 20bd 240e a5bc
000002a0: 4261 48bd 63f5 d9bc 1911 22bd 2d52 edbc
000002b0: 3724 27bd 38a3 91bd d9b5 1fbd 5cfc ecbc
000002c0: de80 4fbd fde5 fbbc 39b5 42bd d710 39bd
000002d0: 8915 0ebd 8afd fbbc 86a5 92bd 8371 a2bc
000002e0: 70b5 52bd 4f54 71bd 2ba0 3cbd f2f7 26bd
000002f0: 1668 44bd e7da 61bd 4923 6ebd e2cb 52bd
00000300: a069 22bd 8b08 60bd 9868 08bd 37e7 9ebd
00000310: e241 4ebd 321b d8bc d5ee 96bd 90dc 9cbd
00000320: 5ad8 813c b1f1 febb 1523 81bb ace2 3a3d
00000330: 5dae ce3c 0629 2d3d 36fd 553d 1322 2cbd
00000340: 8699 e9bc 4421 7dbd d5c4 b23c 9d45 c0bd
00000350: 6081 2ebd ab25 1abd 4453 e3bc 7424 e1bc
00000360: d797 9cbc 45a0 38bc 698c e9bd f6f6 6c3d
00000370: f1c1 c53c 58f1 7b3d b990 c63c 286d c33c
00000380: 84cb 3b3b 2f34 e83b 6cc4 4a3d 5d64 923b
00000390: 81b9 103d 5c3d 173c 3cfe 9a3b 9bc2 d53b
000003a0: 2db5 2c3d c484 793c 8782 443d c845 bcbc
000003b0: 8890 333b abc2 d8bc 53fc 6abc cc87 8d3b
000003c0: 58e4 4b3c d2e3 a6bc a2b3 dd3c 175e 82bc
000003d0: 6ec3 d03b eb2c 603b 3a91 f7bc c84d 7f3c
000003e0: 3650 d23c 4028 98bc 4b97 d63c 7801 82bc
000003f0: 2f5e 9c3c d0ac b5bc 03f4 bfbc 13ac 04bc

fc.bias f4 [10]
-0.011343047 -0.015847571 -0.017066881 -0.011428156 0.0033520693 -0.02078112 0.0320204 0.10062296
-0.03688468 -0.034236927
00000000: 30d8 39bc c4d2 81bc d8cf 8bbc 293d 3bbc
00000010: 64ae 5b3b 2b3d aabc d327 033d 6913 ce3d
00000020: 6414 17bd 053c 0cbd
