Code/output/hog_model_100.pt (torch, 4708 bytes, 2 tensors)

fc.weight f4 [10, 81]
00000000: cd5e 0cbf 4893 a8be 6475 80be 6eb0 82be
00000010: 2620 b7be 9a97 0cbe 786b 1f3c 70d1 23be
00000020: 7175 e4bd a615 cdbf 5f6c 45bf 166b 6bbe
00000030: 0581 d8bf fe70 08c0 30ef 3abf 9cd5 1abf
00000040: d2c7 cfbe 908f 1abf e3aa 07c0 ec8b d9bf
00000050: 5c59 0fbf 7be7 fabd 23ca 913f 0ba0 b03f
00000060: ac75 4140 bd11 633f 1462 eabe 0d01 1e40
00000070: 4275 4740 4ea4 2540 249f 21be 6f8c 4ebf
00000080: c205 80be 47b5 2bbf 5291 fdbe b6d3 58be
00000090: e166 86be 13bb d73f 77a1 163f 060a 33c0
000000a0: 4ba7 a9c0 321c 25c0 e07a 28c0 b41b 15c0
000000b0: 4c1d ffbf 3349 0740 3de2 90be 5adb 54c0
000000c0: be74 0bc0 3e17 2dc0 eb0f 17be 6347 f43f
000000d0: 91e3 6a40 4a8b 3340 5e0c c240 1c87 0640
000000e0: d9ef e7be f13e 45bf eabe 69bf c243 11be
000000f0: 485b ff3f ea29 3640 cbfa 0440 864f 61bf
00000100: d044 37c0 5cc6 44bf 4741 d03e 1c78 91bf
00000110: 2eb3 e4be cbde c73f 561b 0340 7120 233f
00000120: fe22 4fc0 908c 2240 6340 c340 457e 0940
00000130: d37a 13bf a22a a2bf bc1c 1ec0 e1f4 34c0
00000140: f986 47c0 a690 1ebe 07ed 2ebe 45cf 06bd
00000150: 6817 99bb 6d91 4fbd 6101 c5bd ce2f 2e3d
00000160: c6a6 d3bc 738b a23d c68c 8f40 49f3 853f
00000170: fa2b 1ec0 4b4c d9bf 7216 02c0 2bc4 48bf
00000180: 70f7 a23e b502 ed3f 106d f73f 233c a740
00000190: 22f1 6a40 384e 0b40 af1e 79bf 03df c6bf
000001a0: 2691 87bf 00c8 c5bf 50ab 1dbd 31ac 843f
000001b0: 731a 14c0 e2ff 83bf acd9 61bf 223a 16be
000001c0: eb4b 51be f105 65be 3cf6 67be f490 9bbe
000001d0: 020d dabe 03f5 fc3f d8de 3abf 2dc3 25c0
000001e0: c8f3 53c0 7fc6 a6c0 2fc7 2dc0 77b6 44c0
000001f0: d8ae 62bf 2a64 023f 3817 ea3f 9138 26bd
00000200: cccd bdbf 7e01 0ec0 be05 5ec0 d001 dabf
00000210: 8fb8 2ac0 54b3 e6bf e24b e6bf 482f fd3d
00000220: d70e 163f 8a2d 923f a3d7 6a3d 853d 2d3e
00000230: c8ea 15be 973b f6be 26eb a1be 7d77 bebe
00000240: 5b31 6f40 1428 d23f 40d0 27bf 4f8f 11c0
00000250: 50ab b1c0 a013 3dc0 fd74 35c0 eafe 1a3e
00000260: ebc2 b43f 1764 8dbf 144d 94c0 44de 83c0
00000270: 385e 7dbf 60f2 70be 254c 7a3e 7167 d63e
00000280: 77ce 8b3f f883 183f db75 143f ac52 3c3e
00000290: db2b 0a3f 2013 903e e5b0 983c afe0 87bd
000002a0: 5550 35bc cd48 6e3d b945 1d3e ff58 703d
000002b0: 64ad 79bc 82e6 f33f 9826 0c40 9ce2 2240
000002c0: 2e13 1740 033c 4c40 dd15 723f 595e 4c3e
000002d0: 03af 8cbe f39d d8bf d73b 11c0 1850 4abf
000002e0: 59dd 0fc0 a94c 763e 5ea9 3440 a2d6 2f40
000002f0: 98f7 9b3f 659e 4bc0 6df2 03c0 f4f1 d1bc
00000300: fc35 8f3f d2fd ac3f 9d94 b53d 0aa2 2fbf
00000310: dcbb 86bf 002c 9bbf 5222 91c0 76fe 37c0
00000320: b2fb eebf 0f34 17be 73f6 a53f 7828 4e3d
00000330: fa9c 4dbf 4ab3 a7bf c1eb 15c0 d6a5 0340
00000340: be4b e03f 95d4 ecbf ec08 c1bf aaf9 25c0
00000350: ef5d 11c0 2f9a 54c0 aac9 09bd 3149 333f
00000360: 4cd0 1e40 64df bb3f f285 4340 1d40 973f
00000370: 8ee3 463f 9dba 4cbe ab6c 8ebe 0d3f 9c3e
00000380: 507e 003f 765b c6bf 9965 973c 4f69 8a40
00000390: a776 3b40 88d9 fb3f 16d5 2abd 4c2c 1d3f
000003a0: 8bbf b43e 59b5 60bd 7b6e 97c0 92eb 59c0
000003b0: 0e05 36c0 dfdf f13f 1f94 ee40 e0d4 8140
000003c0: c052 6040 9bd3 af3e 2b60 89bf 1e51 5a3f
000003d0: 1631 843e 8c23 c23f 1f7a a73f c521 bc3f
000003e0: 87b2 a03e a9ab 4f3e fadd d93d 62bf 853e
000003f0: 5c81 92be 9b19 ecbf 3540 47bf 65c6 5040
-0.54832155 -0.32924867 -0.25089562 -0.2552523 -0.35766715 -0.13729706 0.009730212 -0.15997863
-0.11155213 -1.6022232 -0.77118486 -0.22990069 -1.6914374 -2.1318965 -0.7302122 -0.6048219
-0.40582138 -0.6037531 -2.119805 -1.6995826 -0.55995727 -0.12251183 1.1389812 1.3798841
3.0228071 0.8869894 -0.45777953 2.4688141 3.1165318 2.5881534 -0.15783364 -0.80683035
-0.25004393 -0.6707348 -0.49524933 -0.21174511 -0.26250365 1.6853966 0.58840126 -2.7974868
-5.3016715 -2.579846 -2.6324997 -2.3298159 -1.9930816 2.1138427 -0.28297606 -3.3258882
-2.1790004 -2.7045436 -0.14752166 1.9084285 3.6701396 2.8053765 6.0640097 2.1019964
-0.45300177 -0.77049166 -0.91306937 -0.14186004 1.9949732 2.8463082 2.0778072 -0.8801197
-2.863575 -0.7686517 0.40674803 -1.136478 -0.44667953 1.5614866 2.0485435 0.63721377
-3.2365108 2.5398293 6.1016097 2.1483319 -0.5760929 -1.266926 -2.4705038 -2.8274462
-3.117613 -0.15484866 -0.17082606 -0.03291251 -0.0046719797 -0.0506758 -0.09619404 0.04252606
-0.02583636 0.07936754 4.4859343 1.046487 -2.471434 -1.6976408 -2.03262 -0.7842433
0.31829405 1.8516451 1.9330158 5.226091 3.6709676 2.176649 -0.97312444 -1.5536808
-1.0591171 -1.545166 -0.038493454 1.0365049 -2.3141143 -1.0312464 -0.88222766 -0.14670613
-0.20439117 -0.22365548 -0.22652525 -0.30384028 -0.4258805 1.9762272 -0.7299628 -2.5900376
-3.3117542 -5.2117305 -2.7152822 -3.0736368 -0.8854804 0.5093409 1.8288336 -0.04058129
-1.4828429 -2.218841 -3.4691005 -1.7031803 -2.6675146 -1.8023477 -1.7991908 0.12362534
0.58616394 1.1420147 0.057334553 0.16917999 -0.14640343 -0.48092338 -0.31624717 -0.37200537
3.7373874 1.6418481 -0.6555214 -2.2743719 -5.552162 -2.9543228 -2.8352654 0.15136304
1.4121984 -1.104617 -4.634409 -4.120882 -0.9897189 -0.23529959 0.2444311 0.41875795
1.0922383 0.5957637 0.57992333 0.18390912 0.5397317 0.2813959 0.018639037 -0.06634652
-0.011066516 0.058174897 0.15358628 0.058678623 -0.015239093 1.905472 2.1898556 2.5450811
2.3605456 3.1911628 0.9456461 0.19957866 -0.27477273 -1.6923202 -2.2692773 -0.79028463
-2.247885 0.24052681 2.8228374 2.7474751 1.2184935 -3.1815426 -2.0616715 -0.025628068
1.118835 1.351496 0.08866236 -0.68606627 -1.052608 -1.2122803 -4.5354395 -2.874906
-1.8670561 -0.14765953 1.2965835 0.050331563 -0.8031765 -1.310159 -2.3425143 2.0569968
1.7523115 -1.8502375 -1.5080848 -2.5933633 -2.2713583 -3.3219106 -0.033639587 0.70033556
2.4814634 1.4677548 3.0550504 1.1816441 0.7769097 -0.19993062 -0.27817282 0.30516854
0.5019274 -1.5496662 0.018481063 4.325355 2.929117 1.967576 -0.04170712 0.61395717
0.35302386 -0.054860447 -4.7322364 -3.405003 -2.8440585 1.8896445 7.455581 4.0572357
3.5050507 0.3434113 -1.0732473 0.85280025 0.258187 1.5167098 1.3084143 1.4697806
0.31386206 0.20280327 0.10638042 0.26122576 -0.28614318 -1.8445314 -0.7783235 3.262109

fc.bias f4 [10]
00000000: d052 1a3f 0836 6e40 1988 8a3f 4e37 c5bf
00000010: 6236 85bf b75d 153f 9305 22bf abf0 eb3f
00000020: ad6f 3dc0 4b45 acbf
0.6028261 3.7220478 1.0822784 -1.5407503 -1.0407221 0.5834612 -0.63289756 1.8432821
-2.9599411 -1.3458647
