Code/output/model.pt (torch, 4684 bytes, 2 tensors)

fc.weight f4 [10, 81]
-2.459487 -0.6548782 -1.1294886 -1.881427 -1.4117111 -0.69298977 -1.7581552 -1.6101198
-2.3562863 -2.6667652 -1.5792668 -0.19207613 -2.7357066 -2.0809703 -1.4432981 -0.8346389
-1.365244 -2.4007375 -3.3189766 -3.7208998 -1.4282576 -0.84801525 1.2770363 2.3010507
2.7000666 1.899559 -1.4815179 2.4806485 2.7074842 3.1906648 -1.4174324 -3.2231297
-3.3716745 -2.8660946 -2.0216835 -0.7745236 -0.21030776 1.4458236 0.33024693 -3.4191265
-3.9164732 -3.457208 -3.1518269 -3.4825785 -3.1213648 2.2625926 -0.27168056 -3.0585365
-3.6587677 -3.5229633 -0.5899772 2.3353872 3.1230578 2.7667806 3.9424465 3.6503236
-1.3627417 -4.3762035 -2.4479086 0.02869052 2.45322 2.742316 2.6484494 -1.2050288
-2.903277 -0.7496089 0.905142 -0.59604913 -0.30581224 1.6079631 2.9562554 0.9323283
-3.1710448 2.570305 3.6647952 2.54105 -1.3464401 -3.8363523 -4.055381 -4.1886244
-4.386681 -1.5295957 -1.2705246 -0.8638706 -1.226149 -0.33444205 -0.59299 0.016374256
-0.18981811 -0.074197255 3.4511406 1.6094619 -2.365171 -2.422768 -1.9584975 -2.3099563
0.781558 2.9871013 3.3108425 3.7086132 3.4184964 2.4912758 -2.7854147 -1.8607042
-2.7193992 -2.0917208 0.6642704 2.5519657 -3.1986158 -2.811298 -2.873305 -1.0309496
-0.7701492 -1.2513372 -0.7380841 -1.4236497 -2.2151964 2.0201566 0.22451326 -2.2895374
-3.1155927 -3.575676 -3.618314 -3.603237 -1.3450807 1.2345833 2.1223967 0.6144669
-1.3667425 -3.355824 -3.8685713 -3.6464558 -3.4375207 -2.709339 -2.5716987 -0.13051534
1.3233176 2.0396595 0.50715023 -0.20672834 -1.490339 -1.2441128 -1.6298573 -1.4567169
2.7725356 1.7857703 -0.44303975 -2.8264644 -3.7434423 -3.5560377 -3.2952409 0.6994538
1.7282376 -0.77728397 -3.8122678 -3.4963107 -1.9643365 -0.94180226 -0.10770402 0.22585595
1.5395052 1.0759534 2.2221496 1.7909272 1.9962772 1.4298036 -0.032744776 0.46836233
1.0863307 1.3607708 1.3495685 -0.4357043 -0.3028325 2.1543016 2.2594507 1.9225612
2.4926546 3.2647142 2.6283524 0.7160098 -0.42214125 -3.5348864 -3.7150362 -2.1120903
-2.5845754 0.4471622 2.4125006 3.209331 2.5146139 -3.445191 -3.4653115 0.42086208
3.1096509 2.9885328 0.22847894 -1.710481 -3.4242628 -3.7149832 -3.7475495 -2.8158457
-1.4325829 -0.22932637 1.1904402 0.24417543 -1.1732218 -2.354577 -3.6069853 1.565193
1.648656 -1.5955025 -2.6895642 -2.885974 -3.7438598 -3.3801143 -0.1528847 0.77246624
2.3046234 2.3311765 3.13995 2.7100554 1.2008811 -0.68927634 -0.26635686 0.2882168
1.4044752 -1.4283104 0.109321214 2.9591658 2.166414 1.7899288 0.048440807 0.29987347
0.1557104 -0.223018 -3.9717596 -3.2899284 -2.8779573 2.5779548 4.0161037 3.4386473
2.8742163 0.88574785 -1.9409573 1.8814021 1.1312686 2.7636266 3.1735117 2.786012
1.3713574 1.2516608 1.447694 1.1971114 -1.309924 -3.3117032 -0.84097534 3.2093606
00000000: 3c68 1dc0 19a6 27bf 1593 90bf 9ad2 f0bf
00000010: f3b2 b4bf c767 31bf 3b0b e1bf 6818 cebf
00000020: 65cd 16c0 48ac 2ac0 6a25 cabf 9baf 44be
00000030: d115 2fc0 9e2e 05c0 febd b8bf e5aa 55bf
00000040: 51c0 aebf afa5 19c0 1d6a 54c0 3923 6ec0
00000050: 25d1 b6bf 8717 59bf ed75 a33f 6a44 1340
00000060: e4cd 2c40 c024 f33f 61a2 bdbf f2c2 1e40
00000070: 6c47 2d40 da33 4c40 6d6e b5bf c247 4ec0
00000080: 84c9 57c0 186e 37c0 4363 01c0 2e47 46bf
00000090: eb5a 57be bf10 b93f 2016 a93e f8d2 5ac0
000000a0: 7fa7 7ac0 e542 5dc0 88b7 49c0 91e2 5ec0
000000b0: 71c4 47c0 51ce 1040 b719 8bbe 10bf 43c0
000000c0: 4029 6ac0 3b78 61c0 bf08 17bf fc76 1540
000000d0: 2ee0 4740 ef12 3140 0b51 7c40 e79e 6940
000000e0: 526e aebf dc09 8cc0 89aa 1cc0 6208 eb3c
000000f0: 8e01 1d40 1b82 2f40 3280 2940 623e 9abf
00000100: 4acf 39c0 5ee6 3fbf 63b7 673f ad96 18bf
00000110: 6c93 9cbe bcd1 cd3f 4a33 3d40 11ad 6e3f
00000120: 66f2 4ac0 e17f 2440 018c 6a40 90a0 2240
00000130: 2658 acbf cc86 75c0 aec5 81c0 3609 86c0
00000140: b15f 8cc0 cbc9 c3bf 8da0 a2bf a026 5dbf
00000150: 73f2 9cbf fd3b abbe 31ce 17bf 4e23 863c
00000160: ae5f 42be bbf4 97bd 7ddf 5c40 d902 ce3f
00000170: f65e 17c0 a20e 1bc0 0cb0 fabf 53d6 13c0
00000180: 2f14 483f ab2c 3f40 d8e4 5340 eb59 6d40
00000190: a5c8 5a40 1071 1f40 3c44 32c0 8e2b eebf
000001a0: a30a 2ec0 c1de 05c0 a00d 2a3f 6853 2340
000001b0: 1fb6 4cc0 4eec 33c0 3be4 37c0 28f6 83bf
000001c0: 7f28 45bf d12b a0bf 14f3 3cbf 273a b6bf
000001d0: c7c5 0dc0 3f4a 0140 cee6 653e c887 12c0
000001e0: df65 47c0 e0d7 64c0 7592 67c0 6f9b 66c0
000001f0: 9b2b acbf d306 9e3f 59d5 0740 b44d 1d3f
00000200: 6bf1 aebf d2c5 56c0 ac96 77c0 885f 69c0
00000210: 5700 5cc0 cf65 2dc0 b696 24c0 d0a5 05be
00000220: 7962 a93f c889 0240 99d4 013f 98b0 53be
00000230: 6ec3 bebf 173f 9fbf 2a9f d0bf b375 babf
00000240: 3971 3140 1f94 e43f 1bd6 e2be cbe4 34c0
00000250: 8f94 6fc0 1f96 63c0 3ae5 52c0 670f 333f
00000260: e436 dd3f 15fc 46bf 32fc 73c0 8ec3 5fc0
00000270: 616f fbbf f419 71bf ed93 dcbd c846 673e
00000280: 820e c53f d7b8 893f b337 0e40 1a3d e53f
00000290: 0386 ff3f ce03 b73f 631f 06bd 30cd ef3e
000002a0: e20c 8b3f bd2d ae3f a9be ac3f a214 dfbe
000002b0: dd0c 9bbe 14e0 0940 d79a 1040 7c16 f63f
000002c0: a787 1f40 14f1 5040 ed36 2840 6b4c 373f
000002d0: e622 d8be 943b 62c0 27c3 6dc0 7d2c 07c0
000002e0: af69 25c0 72f2 e43e 6966 1a40 ae65 4d40
000002f0: 6fef 2040 027e 5cc0 aac7 5dc0 3c7b d73e
00000300: 8504 4740 1f44 3f40 62f6 693e 0bf1 dabf
00000310: 1f27 5bc0 49c2 6dc0 dad7 6fc0 d136 34c0
00000320: e05e b7bf 88d4 6abe 5860 983f 2009 7a3e
00000330: 222c 96bf 64b1 16c0 d9d8 66c0 3f58 c83f
00000340: 2907 d33f 6d39 ccbf d221 2cc0 ccb3 38c0
00000350: 669b 6fc0 cb53 58c0 cf8d 1cbe 59c0 453f
00000360: f37e 1340 ff31 1540 f1f4 4840 8c71 2d40
00000370: 79b6 993f 6a74 30bf ed5f 88be 2791 933e
00000380: d8c5 b33f e0d2 b6bf cde3 df3d f962 3d40
00000390: 87a6 0a40 631c e53f de69 463d 0489 993e
000003a0: 8c72 1f3e d55e 64be 4f31 7ec0 308e 52c0
000003b0: 7430 38c0 36fd 2440 ec83 8040 cc12 5c40
000003c0: 29f3 3740 5fc0 623f 4a71 f8bf c9d1 f03f
000003d0: 69cd 903f 42df 3040 d11a 4b40 054e 3240
000003e0: a488 af3f 6c36 a03f 094e b93f f23a 993f
000003f0: 97ab a7bf f2f2 53c0 294a 57bf 2a66 4d40

fc.bias f4 [10]
0.28734693 1.9427184 0.3842302 -0.84717023 -0.56824094 -0.1204199 -0.29934853 0.9548719
-1.1079135 -0.32335088
00000000: 231f 933e ffaa f83f d2b9 c43e 26e0 58bf
00000010: 3d78 11bf b59e f6bd 3644 99be 7c72 743f
00000020: 1cd0 8dbf 3f8e a5be
