Code/output/vit_model.pt (torch, 16780 bytes, 2 tensors)

fc.weight f4 [10, 384]
000000 b0 7b 89 3d 0f 9e 24 3d 12 47 9c 3d 2e fd 16 be
       0.06713045 0.0401898 0.07630743 -0.14745018
000010 8a dc 74 3d bc 91 64 3e 38 23 3b bd df 10 e6 bc
       0.059780635 0.22321218 -0.045687884 -0.028084217
000020 9b bb 14 be c1 a1 e2 bd 21 95 69 3e d5 82 8c bd
       -0.14524691 -0.11066008 0.22810794 -0.06860892
000030 91 4f 10 bd 12 21 1a 3e e7 cf 29 be 5a 61 55 3d
       -0.03523213 0.15051678 -0.16583215 0.052094795
000040 10 39 47 bd d2 c8 84 bd 70 fc 92 3b b2 0a 0b 3e
       -0.048638403 -0.06483616 0.0044856593 0.13578299
000050 ec f4 50 ba 11 5e 0f be c4 dd 66 3e 95 ed b8 bc
       -0.00079710665 -0.14000727 0.22545534 -0.022574225
000060 c4 01 6f bc d2 14 8d 3d 51 76 c6 3c f0 93 fd be
       -0.014587823 0.06888737 0.02422634 -0.4952693
000070 83 f6 0c bf 25 e7 87 3e 5e ba cd 3d e3 46 b6 3b
       -0.5506365 0.26543537 0.10045312 0.0055626496
000080 98 6a 83 3e 6f 4c 3e 3e 43 3d 01 be c7 c9 e3 3d
       0.25667262 0.18583845 -0.12621026 0.1112247
000090 d8 49 76 3d 08 89 0a bf ed 8d 4b 3b f2 26 b5 3a
       0.060129017 -0.54115343 0.0031059936 0.0013820811
0000a0 d7 6b 80 be b1 2d 55 3d d3 c6 c3 3e d5 6a 68 3a
       -0.25082275 0.052045528 0.38237628 0.0008866017
0000b0 59 76 a5 be ed 1c 3d 3d 16 fd dc 3e d0 4e f9 3a
       -0.32316855 0.046170164 0.4316184 0.001902068
0000c0 53 c4 0e be 5e 44 71 be 7e b4 94 bd 8b af fb bd
       -0.13942079 -0.23561236 -0.07260989 -0.122893415
0000d0 7a 56 25 be 11 73 4e 3d 63 43 ab 3e ea 0e d2 3c
       -0.1614627 0.050402705 0.3344985 0.025641877
0000e0 6a ff a0 be 22 de 6d be b3 31 41 be 34 32 47 be
       -0.31444865 -0.23229268 -0.18866615 -0.19452745
0000f0 ee db 59 bc 59 4c fb bd a4 52 04 bf de a7 ed 3d
       -0.013297064 -0.122704215 -0.516886 0.11604284
000100 8f 2b 92 bd 4a 2d 86 3d c9 b7 92 bd 3e c6 d1 bc
       -0.071372144 0.06551607 -0.071639605 -0.025607225
000110 e9 e4 62 be bd 53 c5 3d 54 38 ae 3d c0 38 7c 3e
       -0.22157635 0.096351124 0.085068375 0.24631023
000120 1d 0c 7c 3e 67 13 e5 3d cb 45 ae bd 2c b8 00 bf
       0.24613996 0.11185341 -0.08509406 -0.50281024
000130 d0 a8 c7 3d 90 bf 17 bd 7e 9b 47 3e 4d c4 72 bd
       0.09748995 -0.037047923 0.1949291 -0.05926924
000140 1d cf 4d bd f5 3a 14 be 0d a4 c9 3c 94 52 03 3e
       -0.050246347 -0.14475615 0.024614358 0.1282447
000150 7d 3b 7b 3e f6 17 66 be c4 51 20 be 4c 92 1c 3e
       0.24534412 -0.22470078 -0.15656191 0.15290183
000160 ac d2 0f 3e 7c 33 22 3d f2 cb ab 3e c9 4e 80 3e
       0.14045209 0.03959988 0.33554035 0.25060108
000170 77 1e 03 bd 4e 4b e9 3e 2a 9d 7f bd e3 bf d7 3e
       -0.032011475 0.45565265 -0.062405743 0.42138585
000180 c0 09 1d be 4e 9d aa be 70 2c 8c be ce bd 82 be
       -0.1533575 -0.3332314 -0.27377653 -0.25535434
000190 16 d1 85 bc 9c 65 24 3d a6 4d 13 be 1a 9f 39 bd
       -0.016335052 0.040135965 -0.1438509 -0.045317747
0001a0 5f 99 93 be 1b 76 bb 3d ba 21 02 3e 27 04 f5 bd
       -0.2882795 0.09153386 0.12708178 -0.119636826
0001b0 8c f3 f0 3d bd f6 a8 ba 5f 55 05 3d 5a 7e 99 3b
       0.11765203 -0.0012890917 0.03255212 0.0046842517
0001c0 44 f5 62 3d d4 39 04 3d e7 66 e7 be e2 c6 6b 3e
       0.055409685 0.03228171 -0.45195696 0.23025087
0001d0 79 d3 34 3e 11 6d 82 bd 08 ed d0 3e a5 e8 e4 bd
       0.17658795 -0.06368459 0.4080584 -0.11177186
0001e0 e5 fb 21 bc 00 d9 98 bd ab 48 ef bd 81 51 ab be
       -0.0098867165 -0.074632645 -0.11683782 -0.3346062
0001f0 a5 c0 96 3e 47 1a 73 3d 1a 0c 45 3c 5a 42 18 bd
       0.2944385 0.059351232 0.012026811 -0.037172653
000200 a8 a2 bb bd b1 ad 04 bb 07 72 cc bd 9c ac 0b bd
       -0.091618836 -0.002024513 -0.099826865 -0.03410016
000210 c4 74 92 bd 11 2a 8f 3c 21 c7 78 be a2 ce 6b 3b
       -0.071511775 0.017476114 -0.24294712 0.0035981317
000220 98 57 52 3d bd 6d 2f be f3 e9 92 3b 4f 9f 37 be
       0.051353067 -0.17131706 0.0044834553 -0.17931865
000230 ad b0 f4 3d d9 8b 0c be 8a 94 2f be ae 43 05 3e
       0.11947761 -0.13725223 -0.17146507 0.13014099
000240 f9 4c 37 bd 31 03 14 3e 15 29 22 be 89 55 83 3e
       -0.04475114 0.14454342 -0.15835984 0.25651196
000250 10 06 8c be 6c ca 58 3e 23 37 ce bd 65 13 85 3c
       -0.27348375 0.21170968 -0.1006911 0.0162446
000260 ce 82 37 3d 14 04 5a bd 9d 7e 61 bc 27 ab 48 bd
       0.04480248 -0.053226545 -0.013763097 -0.04899135
000270 2e d9 06 be f7 e9 4b be 73 63 b6 bb 5d 48 21 3c
       -0.13168785 -0.1991347 -0.0055660545 0.009843913
000280 03 81 1a 3e af 85 39 be 70 b5 8e 3e 22 b1 8f 3e
       0.15088277 -0.18117402 0.278728 0.2806483
000290 b6 8f 8c be 8f 7e a3 3d af 7f 91 be 90 2b 32 3e
       -0.27453393 0.079831235 -0.28417727 0.1739943
0002a0 20 bf 17 bd 89 e3 29 3e 01 f9 22 3d 3b 53 6b be
       -0.037047505 0.16590704 0.03978825 -0.22980969
0002b0 4b dd ab be e3 b6 98 3d 76 f5 84 bd 88 f4 44 bf
       -0.3356727 0.07456758 -0.064921305 -0.76935625
0002c0 59 d6 a2 3c ef 61 25 bd d5 3c be be ec 4c a4 bd
       0.0198776 -0.0403766 -0.37155786 -0.08022484
0002d0 3c 07 43 be 04 33 d2 3d 52 51 5d 3e f9 c3 43 bc
       -0.19045728 0.10263637 0.21613052 -0.011948579
0002e0 e4 21 05 3e 84 52 d0 bd 64 88 1e be bd 82 22 3d
       0.1300121 -0.101719886 -0.15481716 0.039675463
0002f0 e9 27 7b be 53 c0 10 be ef 27 aa 3d 8e 41 a4 be
       -0.24526943 -0.14135866 0.08308398 -0.32081264
000300 2c e6 86 bd 24 93 0c 3e 9d a1 a3 3d 5d 3c 8a bd
       -0.065868706 0.13728005 0.0798981 -0.06749795
000310 cf 20 b8 3d ed 45 07 3e b5 69 08 bd fe 1f 9c bd
       0.08990633 0.13210268 -0.033303935 -0.076232895
000320 86 ef 5c 3b ab 00 c6 be 35 a2 56 3e b2 27 c2 3d
       0.0033712103 -0.38672385 0.20960315 0.094802275
000330 8b 87 0e be 9c ed 2c bd 63 f7 88 be 5b 37 24 be
       -0.13918893 -0.04221879 -0.2675124 -0.16036741
000340 a3 c2 7c bc 4f 29 66 3e 52 fd 60 3e 9c 36 8b 3d
       -0.015427264 0.22476695 0.21971634 0.06797525
000350 c9 de 28 be 21 d6 91 3e 89 d6 da be 13 ad 4a 3e
       -0.16491236 0.2848368 -0.42741802 0.19792585
000360 c7 13 f8 3b 64 8b ca 3c d0 e4 91 3d d1 6f 74 bd
       0.007570717 0.02472467 0.07123721 -0.05967695
000370 aa 91 28 be 35 18 a9 3b 89 09 96 be 8c 2a 35 3d
       -0.16461816 0.0051603564 -0.2930415 0.04423003
000380 ce 8b ed 3d 4c 79 77 be 98 e6 99 3e 63 04 88 be
       0.11598931 -0.24167365 0.30058742 -0.26565847
000390 78 fc 7c be bd ba bd 3d d9 fe 28 3e 43 59 dd be
       -0.24705684 0.09264133 0.16503467 -0.43232164
0003a0 ac 72 37 be f3 a8 98 3e e7 e9 3e bd 1e 19 82 be
       -0.17914838 0.29816398 -0.046609785 -0.25409788
0003b0 ec 37 66 3a 05 fb f8 3b 32 8d 8b 3d ca 8b 0f 3e
       0.0008782137 0.0075982832 0.0681404 0.14018169
0003c0 a6 1b bd bd 1b 62 05 3e 0a 0b 89 bc 00 ec ef 3e
       -0.09233789 0.13025706 -0.016728897 0.4685974
0003d0 9d 35 b9 3c 22 1d 55 3d 97 6e dc be 4c a6 cb 3c
       0.022608573 0.052029736 -0.43053123 0.02485957
0003e0 67 01 4f 3c 15 f5 cd bb 24 9a cb 3d a7 b8 5f be
       0.012634612 -0.0062853196 0.09941509 -0.21847783
0003f0 04 47 b1 be 23 7c 57 be ef b6 32 be 11 ea 95 be
       -0.34624493 -0.21043448 -0.17452596 -0.2928014

fc.bias f4 [10]
000000 87 c5 8f 3d 08 17 02 3d 50 87 89 3c 25 c9 d3 bc
       0.07020097 0.031760246 0.016788155 -0.02585275
000010 69 eb 7d bc 0d 32 57 3c e0 0b 77 bd 01 21 e1 3c
       -0.015498021 0.013134492 -0.06031406 0.027481558
000020 fc e0 99 3b 67 ae 6d 3c
       0.0046960097 0.014506913
